{"format": "graph-model", "generatedBy": "2.2.0", "convertedBy": "TensorFlow.js Converter v2.0.0", "userDefinedMetadata": {"signature": {"inputs": {"input_1:0": {"name": "input_1:0", "dtype": "DT_FLOAT", "tensorShape": {"dim": [{"size": "-1"}, {"size": "-1"}]}}}, "outputs": {"Identity:0": {"name": "Identity:0", "dtype": "DT_FLOAT", "tensorShape": {"dim": [{"size": "1"}, {"size": "22"}]}}}}}, "modelTopology": {"node": [{"name": "input_1", "op": "Placeholder", "attr": {"dtype": {"type": "DT_FLOAT"}, "shape": {"shape": {"dim": [{"size": "-1"}, {"size": "-1"}]}}}}, {"name": "StatefulPartitionedCall/audio_model/model/Conv1/Conv2D_weights", "op": "Const", "attr": {"value": {"tensor": {"dtype": "DT_FLOAT", "tensorShape": {"dim": [{"size": "3"}, {"size": "3"}, {"size": "3"}, {"size": "32"}]}}}, "dtype": {"type": "DT_FLOAT"}}}, {"name": "StatefulPartitionedCall/audio_model/model/block_14_expand/Conv2D_weights", "op": "Const", "attr": {"dtype": {"type": "DT_FLOAT"}, "value": {"tensor": {"dtype": "DT_FLOAT", "tensorShape": {"dim": [{"size": "1"}, {"size": "1"}, {"size": "160"}, {"size": "960"}]}}}}}, {"name": "StatefulPartitionedCall/audio_model/model/Conv1/Conv2D_bn_offset", "op": "Const", "attr": {"value": {"tensor": {"dtype": "DT_FLOAT", "tensorShape": {"dim": [{"size": "32"}]}}}, "dtype": {"type": "DT_FLOAT"}}}, {"name": "StatefulPartitionedCall/audio_model/model/block_16_project/Conv2D_bn_offset", "op": "Const", "attr": {"value": {"tensor": {"dtype": "DT_FLOAT", "tensorShape": {"dim": [{"size": "320"}]}}}, "dtype": {"type": "DT_FLOAT"}}}, {"name": "StatefulPartitionedCall/audio_model/model/expanded_conv_depthwise/depthwise_weights", "op": "Const", "attr": {"value": {"tensor": {"dtype": "DT_FLOAT", "tensorShape": {"dim": [{"size": "3"}, {"size": "3"}, {"size": "32"}, {"size": "1"}]}}}, "dtype": {"type": "DT_FLOAT"}}}, {"name": "StatefulPartitionedCall/audio_model/model/expanded_conv_depthwise/depthwise_bn_offset", "op": "Const", "attr": {"value": {"tensor": {"dtype": "DT_FLOAT", "tensorShape": {"dim": [{"size": "32"}]}}}, "dtype": {"type": "DT_FLOAT"}}}, {"name": "StatefulPartitionedCall/audio_model/model/expanded_conv_project/Conv2D_weights", "op": "Const", "attr": {"dtype": {"type": "DT_FLOAT"}, "value": {"tensor": {"dtype": "DT_FLOAT", "tensorShape": {"dim": [{"size": "1"}, {"size": "1"}, {"size": "32"}, {"size": "16"}]}}}}}, {"name": "StatefulPartitionedCall/audio_model/model/block_14_expand/Conv2D_bn_offset", "op": "Const", "attr": {"value": {"tensor": {"dtype": "DT_FLOAT", "tensorShape": {"dim": [{"size": "960"}]}}}, "dtype": {"type": "DT_FLOAT"}}}, {"name": "StatefulPartitionedCall/audio_model/model/expanded_conv_project/Conv2D_bn_offset", "op": "Const", "attr": {"value": {"tensor": {"dtype": "DT_FLOAT", "tensorShape": {"dim": [{"size": "16"}]}}}, "dtype": {"type": "DT_FLOAT"}}}, {"name": "StatefulPartitionedCall/audio_model/model/block_1_expand/Conv2D_weights", "op": "Const", "attr": {"value": {"tensor": {"dtype": "DT_FLOAT", "tensorShape": {"dim": [{"size": "1"}, {"size": "1"}, {"size": "16"}, {"size": "96"}]}}}, "dtype": {"type": "DT_FLOAT"}}}, {"name": "StatefulPartitionedCall/audio_model/model/block_1_expand/Conv2D_bn_offset", "op": "Const", "attr": {"value": {"tensor": {"dtype": "DT_FLOAT", "tensorShape": {"dim": [{"size": "96"}]}}}, "dtype": {"type": "DT_FLOAT"}}}, {"name": "StatefulPartitionedCall/audio_model/model/block_1_depthwise/depthwise_weights", "op": "Const", "attr": {"value": {"tensor": {"dtype": "DT_FLOAT", "tensorShape": {"dim": [{"size": "3"}, {"size": "3"}, {"size": "96"}, {"size": "1"}]}}}, "dtype": {"type": "DT_FLOAT"}}}, {"name": "StatefulPartitionedCall/audio_model/model/block_1_depthwise/depthwise_bn_offset", "op": "Const", "attr": {"value": {"tensor": {"dtype": "DT_FLOAT", "tensorShape": {"dim": [{"size": "96"}]}}}, "dtype": {"type": "DT_FLOAT"}}}, {"name": "StatefulPartitionedCall/audio_model/model/block_1_project/Conv2D_weights", "op": "Const", "attr": {"value": {"tensor": {"dtype": "DT_FLOAT", "tensorShape": {"dim": [{"size": "1"}, {"size": "1"}, {"size": "96"}, {"size": "24"}]}}}, "dtype": {"type": "DT_FLOAT"}}}, {"name": "StatefulPartitionedCall/audio_model/model/block_14_depthwise/depthwise_weights", "op": "Const", "attr": {"value": {"tensor": {"dtype": "DT_FLOAT", "tensorShape": {"dim": [{"size": "3"}, {"size": "3"}, {"size": "960"}, {"size": "1"}]}}}, "dtype": {"type": "DT_FLOAT"}}}, {"name": "StatefulPartitionedCall/audio_model/model/block_1_project/Conv2D_bn_offset", "op": "Const", "attr": {"value": {"tensor": {"dtype": "DT_FLOAT", "tensorShape": {"dim": [{"size": "24"}]}}}, "dtype": {"type": "DT_FLOAT"}}}, {"name": "StatefulPartitionedCall/audio_model/model/block_2_expand/Conv2D_weights", "op": "Const", "attr": {"value": {"tensor": {"dtype": "DT_FLOAT", "tensorShape": {"dim": [{"size": "1"}, {"size": "1"}, {"size": "24"}, {"size": "144"}]}}}, "dtype": {"type": "DT_FLOAT"}}}, {"name": "StatefulPartitionedCall/audio_model/model/block_2_expand/Conv2D_bn_offset", "op": "Const", "attr": {"value": {"tensor": {"dtype": "DT_FLOAT", "tensorShape": {"dim": [{"size": "144"}]}}}, "dtype": {"type": "DT_FLOAT"}}}, {"name": "StatefulPartitionedCall/audio_model/model/block_14_depthwise/depthwise_bn_offset", "op": "Const", "attr": {"value": {"tensor": {"dtype": "DT_FLOAT", "tensorShape": {"dim": [{"size": "960"}]}}}, "dtype": {"type": "DT_FLOAT"}}}, {"name": "StatefulPartitionedCall/audio_model/model/block_2_depthwise/depthwise_weights", "op": "Const", "attr": {"value": {"tensor": {"dtype": "DT_FLOAT", "tensorShape": {"dim": [{"size": "3"}, {"size": "3"}, {"size": "144"}, {"size": "1"}]}}}, "dtype": {"type": "DT_FLOAT"}}}, {"name": "StatefulPartitionedCall/audio_model/model/block_2_depthwise/depthwise_bn_offset", "op": "Const", "attr": {"dtype": {"type": "DT_FLOAT"}, "value": {"tensor": {"dtype": "DT_FLOAT", "tensorShape": {"dim": [{"size": "144"}]}}}}}, {"name": "StatefulPartitionedCall/audio_model/model/block_2_project/Conv2D_weights", "op": "Const", "attr": {"value": {"tensor": {"dtype": "DT_FLOAT", "tensorShape": {"dim": [{"size": "1"}, {"size": "1"}, {"size": "144"}, {"size": "24"}]}}}, "dtype": {"type": "DT_FLOAT"}}}, {"name": "StatefulPartitionedCall/audio_model/model/block_2_project/Conv2D_bn_offset", "op": "Const", "attr": {"value": {"tensor": {"dtype": "DT_FLOAT", "tensorShape": {"dim": [{"size": "24"}]}}}, "dtype": {"type": "DT_FLOAT"}}}, {"name": "StatefulPartitionedCall/audio_model/model/block_3_expand/Conv2D_weights", "op": "Const", "attr": {"value": {"tensor": {"dtype": "DT_FLOAT", "tensorShape": {"dim": [{"size": "1"}, {"size": "1"}, {"size": "24"}, {"size": "144"}]}}}, "dtype": {"type": "DT_FLOAT"}}}, {"name": "StatefulPartitionedCall/audio_model/model/block_3_expand/Conv2D_bn_offset", "op": "Const", "attr": {"value": {"tensor": {"dtype": "DT_FLOAT", "tensorShape": {"dim": [{"size": "144"}]}}}, "dtype": {"type": "DT_FLOAT"}}}, {"name": "StatefulPartitionedCall/audio_model/model/block_14_project/Conv2D_weights", "op": "Const", "attr": {"value": {"tensor": {"dtype": "DT_FLOAT", "tensorShape": {"dim": [{"size": "1"}, {"size": "1"}, {"size": "960"}, {"size": "160"}]}}}, "dtype": {"type": "DT_FLOAT"}}}, {"name": "StatefulPartitionedCall/audio_model/model/block_3_depthwise/depthwise_weights", "op": "Const", "attr": {"value": {"tensor": {"dtype": "DT_FLOAT", "tensorShape": {"dim": [{"size": "3"}, {"size": "3"}, {"size": "144"}, {"size": "1"}]}}}, "dtype": {"type": "DT_FLOAT"}}}, {"name": "StatefulPartitionedCall/audio_model/model/block_3_depthwise/depthwise_bn_offset", "op": "Const", "attr": {"value": {"tensor": {"dtype": "DT_FLOAT", "tensorShape": {"dim": [{"size": "144"}]}}}, "dtype": {"type": "DT_FLOAT"}}}, {"name": "StatefulPartitionedCall/audio_model/model/block_3_project/Conv2D_weights", "op": "Const", "attr": {"value": {"tensor": {"dtype": "DT_FLOAT", "tensorShape": {"dim": [{"size": "1"}, {"size": "1"}, {"size": "144"}, {"size": "32"}]}}}, "dtype": {"type": "DT_FLOAT"}}}, {"name": "StatefulPartitionedCall/audio_model/model/Conv_1/Conv2D_weights", "op": "Const", "attr": {"value": {"tensor": {"dtype": "DT_FLOAT", "tensorShape": {"dim": [{"size": "1"}, {"size": "1"}, {"size": "320"}, {"size": "1280"}]}}}, "dtype": {"type": "DT_FLOAT"}}}, {"name": "StatefulPartitionedCall/audio_model/model/block_3_project/Conv2D_bn_offset", "op": "Const", "attr": {"value": {"tensor": {"dtype": "DT_FLOAT", "tensorShape": {"dim": [{"size": "32"}]}}}, "dtype": {"type": "DT_FLOAT"}}}, {"name": "StatefulPartitionedCall/audio_model/model/block_4_expand/Conv2D_weights", "op": "Const", "attr": {"value": {"tensor": {"dtype": "DT_FLOAT", "tensorShape": {"dim": [{"size": "1"}, {"size": "1"}, {"size": "32"}, {"size": "192"}]}}}, "dtype": {"type": "DT_FLOAT"}}}, {"name": "StatefulPartitionedCall/audio_model/model/block_14_project/Conv2D_bn_offset", "op": "Const", "attr": {"value": {"tensor": {"dtype": "DT_FLOAT", "tensorShape": {"dim": [{"size": "160"}]}}}, "dtype": {"type": "DT_FLOAT"}}}, {"name": "StatefulPartitionedCall/audio_model/model/block_4_expand/Conv2D_bn_offset", "op": "Const", "attr": {"value": {"tensor": {"dtype": "DT_FLOAT", "tensorShape": {"dim": [{"size": "192"}]}}}, "dtype": {"type": "DT_FLOAT"}}}, {"name": "StatefulPartitionedCall/audio_model/model/block_4_depthwise/depthwise_weights", "op": "Const", "attr": {"value": {"tensor": {"dtype": "DT_FLOAT", "tensorShape": {"dim": [{"size": "3"}, {"size": "3"}, {"size": "192"}, {"size": "1"}]}}}, "dtype": {"type": "DT_FLOAT"}}}, {"name": "StatefulPartitionedCall/audio_model/model/block_4_depthwise/depthwise_bn_offset", "op": "Const", "attr": {"value": {"tensor": {"dtype": "DT_FLOAT", "tensorShape": {"dim": [{"size": "192"}]}}}, "dtype": {"type": "DT_FLOAT"}}}, {"name": "StatefulPartitionedCall/audio_model/model/block_4_project/Conv2D_weights", "op": "Const", "attr": {"value": {"tensor": {"dtype": "DT_FLOAT", "tensorShape": {"dim": [{"size": "1"}, {"size": "1"}, {"size": "192"}, {"size": "32"}]}}}, "dtype": {"type": "DT_FLOAT"}}}, {"name": "StatefulPartitionedCall/audio_model/model/block_4_project/Conv2D_bn_offset", "op": "Const", "attr": {"value": {"tensor": {"dtype": "DT_FLOAT", "tensorShape": {"dim": [{"size": "32"}]}}}, "dtype": {"type": "DT_FLOAT"}}}, {"name": "StatefulPartitionedCall/audio_model/model/block_5_expand/Conv2D_weights", "op": "Const", "attr": {"value": {"tensor": {"dtype": "DT_FLOAT", "tensorShape": {"dim": [{"size": "1"}, {"size": "1"}, {"size": "32"}, {"size": "192"}]}}}, "dtype": {"type": "DT_FLOAT"}}}, {"name": "StatefulPartitionedCall/audio_model/model/block_15_expand/Conv2D_weights", "op": "Const", "attr": {"value": {"tensor": {"dtype": "DT_FLOAT", "tensorShape": {"dim": [{"size": "1"}, {"size": "1"}, {"size": "160"}, {"size": "960"}]}}}, "dtype": {"type": "DT_FLOAT"}}}, {"name": "StatefulPartitionedCall/audio_model/model/block_5_expand/Conv2D_bn_offset", "op": "Const", "attr": {"value": {"tensor": {"dtype": "DT_FLOAT", "tensorShape": {"dim": [{"size": "192"}]}}}, "dtype": {"type": "DT_FLOAT"}}}, {"name": "StatefulPartitionedCall/audio_model/model/block_5_depthwise/depthwise_weights", "op": "Const", "attr": {"value": {"tensor": {"dtype": "DT_FLOAT", "tensorShape": {"dim": [{"size": "3"}, {"size": "3"}, {"size": "192"}, {"size": "1"}]}}}, "dtype": {"type": "DT_FLOAT"}}}, {"name": "StatefulPartitionedCall/audio_model/model/block_5_depthwise/depthwise_bn_offset", "op": "Const", "attr": {"value": {"tensor": {"dtype": "DT_FLOAT", "tensorShape": {"dim": [{"size": "192"}]}}}, "dtype": {"type": "DT_FLOAT"}}}, {"name": "StatefulPartitionedCall/audio_model/model/block_5_project/Conv2D_weights", "op": "Const", "attr": {"value": {"tensor": {"dtype": "DT_FLOAT", "tensorShape": {"dim": [{"size": "1"}, {"size": "1"}, {"size": "192"}, {"size": "32"}]}}}, "dtype": {"type": "DT_FLOAT"}}}, {"name": "StatefulPartitionedCall/audio_model/model/block_15_expand/Conv2D_bn_offset", "op": "Const", "attr": {"value": {"tensor": {"dtype": "DT_FLOAT", "tensorShape": {"dim": [{"size": "960"}]}}}, "dtype": {"type": "DT_FLOAT"}}}, {"name": "StatefulPartitionedCall/audio_model/model/block_5_project/Conv2D_bn_offset", "op": "Const", "attr": {"dtype": {"type": "DT_FLOAT"}, "value": {"tensor": {"dtype": "DT_FLOAT", "tensorShape": {"dim": [{"size": "32"}]}}}}}, {"name": "StatefulPartitionedCall/audio_model/model/block_6_expand/Conv2D_weights", "op": "Const", "attr": {"value": {"tensor": {"dtype": "DT_FLOAT", "tensorShape": {"dim": [{"size": "1"}, {"size": "1"}, {"size": "32"}, {"size": "192"}]}}}, "dtype": {"type": "DT_FLOAT"}}}, {"name": "StatefulPartitionedCall/audio_model/model/Conv_1/Conv2D_bn_offset", "op": "Const", "attr": {"value": {"tensor": {"dtype": "DT_FLOAT", "tensorShape": {"dim": [{"size": "1280"}]}}}, "dtype": {"type": "DT_FLOAT"}}}, {"name": "StatefulPartitionedCall/audio_model/model/block_6_expand/Conv2D_bn_offset", "op": "Const", "attr": {"value": {"tensor": {"dtype": "DT_FLOAT", "tensorShape": {"dim": [{"size": "192"}]}}}, "dtype": {"type": "DT_FLOAT"}}}, {"name": "StatefulPartitionedCall/audio_model/model/block_6_depthwise/depthwise_weights", "op": "Const", "attr": {"value": {"tensor": {"dtype": "DT_FLOAT", "tensorShape": {"dim": [{"size": "3"}, {"size": "3"}, {"size": "192"}, {"size": "1"}]}}}, "dtype": {"type": "DT_FLOAT"}}}, {"name": "StatefulPartitionedCall/audio_model/model/block_6_depthwise/depthwise_bn_offset", "op": "Const", "attr": {"value": {"tensor": {"dtype": "DT_FLOAT", "tensorShape": {"dim": [{"size": "192"}]}}}, "dtype": {"type": "DT_FLOAT"}}}, {"name": "StatefulPartitionedCall/audio_model/model/block_6_project/Conv2D_weights", "op": "Const", "attr": {"value": {"tensor": {"dtype": "DT_FLOAT", "tensorShape": {"dim": [{"size": "1"}, {"size": "1"}, {"size": "192"}, {"size": "64"}]}}}, "dtype": {"type": "DT_FLOAT"}}}, {"name": "StatefulPartitionedCall/audio_model/model/block_15_depthwise/depthwise_weights", "op": "Const", "attr": {"value": {"tensor": {"dtype": "DT_FLOAT", "tensorShape": {"dim": [{"size": "3"}, {"size": "3"}, {"size": "960"}, {"size": "1"}]}}}, "dtype": {"type": "DT_FLOAT"}}}, {"name": "StatefulPartitionedCall/audio_model/model/block_6_project/Conv2D_bn_offset", "op": "Const", "attr": {"value": {"tensor": {"dtype": "DT_FLOAT", "tensorShape": {"dim": [{"size": "64"}]}}}, "dtype": {"type": "DT_FLOAT"}}}, {"name": "StatefulPartitionedCall/audio_model/model/block_7_expand/Conv2D_weights", "op": "Const", "attr": {"value": {"tensor": {"dtype": "DT_FLOAT", "tensorShape": {"dim": [{"size": "1"}, {"size": "1"}, {"size": "64"}, {"size": "384"}]}}}, "dtype": {"type": "DT_FLOAT"}}}, {"name": "StatefulPartitionedCall/audio_model/model/block_7_expand/Conv2D_bn_offset", "op": "Const", "attr": {"value": {"tensor": {"dtype": "DT_FLOAT", "tensorShape": {"dim": [{"size": "384"}]}}}, "dtype": {"type": "DT_FLOAT"}}}, {"name": "StatefulPartitionedCall/audio_model/model/block_15_depthwise/depthwise_bn_offset", "op": "Const", "attr": {"value": {"tensor": {"dtype": "DT_FLOAT", "tensorShape": {"dim": [{"size": "960"}]}}}, "dtype": {"type": "DT_FLOAT"}}}, {"name": "StatefulPartitionedCall/audio_model/model/block_7_depthwise/depthwise_weights", "op": "Const", "attr": {"value": {"tensor": {"dtype": "DT_FLOAT", "tensorShape": {"dim": [{"size": "3"}, {"size": "3"}, {"size": "384"}, {"size": "1"}]}}}, "dtype": {"type": "DT_FLOAT"}}}, {"name": "StatefulPartitionedCall/audio_model/model/block_7_depthwise/depthwise_bn_offset", "op": "Const", "attr": {"value": {"tensor": {"dtype": "DT_FLOAT", "tensorShape": {"dim": [{"size": "384"}]}}}, "dtype": {"type": "DT_FLOAT"}}}, {"name": "StatefulPartitionedCall/audio_model/model/block_7_project/Conv2D_weights", "op": "Const", "attr": {"value": {"tensor": {"dtype": "DT_FLOAT", "tensorShape": {"dim": [{"size": "1"}, {"size": "1"}, {"size": "384"}, {"size": "64"}]}}}, "dtype": {"type": "DT_FLOAT"}}}, {"name": "StatefulPartitionedCall/audio_model/model/block_7_project/Conv2D_bn_offset", "op": "Const", "attr": {"value": {"tensor": {"dtype": "DT_FLOAT", "tensorShape": {"dim": [{"size": "64"}]}}}, "dtype": {"type": "DT_FLOAT"}}}, {"name": "StatefulPartitionedCall/audio_model/model/block_8_expand/Conv2D_weights", "op": "Const", "attr": {"value": {"tensor": {"dtype": "DT_FLOAT", "tensorShape": {"dim": [{"size": "1"}, {"size": "1"}, {"size": "64"}, {"size": "384"}]}}}, "dtype": {"type": "DT_FLOAT"}}}, {"name": "StatefulPartitionedCall/audio_model/model/block_8_expand/Conv2D_bn_offset", "op": "Const", "attr": {"value": {"tensor": {"dtype": "DT_FLOAT", "tensorShape": {"dim": [{"size": "384"}]}}}, "dtype": {"type": "DT_FLOAT"}}}, {"name": "StatefulPartitionedCall/audio_model/model/block_15_project/Conv2D_weights", "op": "Const", "attr": {"value": {"tensor": {"dtype": "DT_FLOAT", "tensorShape": {"dim": [{"size": "1"}, {"size": "1"}, {"size": "960"}, {"size": "160"}]}}}, "dtype": {"type": "DT_FLOAT"}}}, {"name": "StatefulPartitionedCall/audio_model/model/block_8_depthwise/depthwise_weights", "op": "Const", "attr": {"value": {"tensor": {"dtype": "DT_FLOAT", "tensorShape": {"dim": [{"size": "3"}, {"size": "3"}, {"size": "384"}, {"size": "1"}]}}}, "dtype": {"type": "DT_FLOAT"}}}, {"name": "StatefulPartitionedCall/audio_model/model/block_8_depthwise/depthwise_bn_offset", "op": "Const", "attr": {"value": {"tensor": {"dtype": "DT_FLOAT", "tensorShape": {"dim": [{"size": "384"}]}}}, "dtype": {"type": "DT_FLOAT"}}}, {"name": "StatefulPartitionedCall/audio_model/model/block_8_project/Conv2D_weights", "op": "Const", "attr": {"dtype": {"type": "DT_FLOAT"}, "value": {"tensor": {"dtype": "DT_FLOAT", "tensorShape": {"dim": [{"size": "1"}, {"size": "1"}, {"size": "384"}, {"size": "64"}]}}}}}, {"name": "StatefulPartitionedCall/audio_model/model/block_8_project/Conv2D_bn_offset", "op": "Const", "attr": {"value": {"tensor": {"dtype": "DT_FLOAT", "tensorShape": {"dim": [{"size": "64"}]}}}, "dtype": {"type": "DT_FLOAT"}}}, {"name": "StatefulPartitionedCall/audio_model/model/block_9_expand/Conv2D_weights", "op": "Const", "attr": {"value": {"tensor": {"dtype": "DT_FLOAT", "tensorShape": {"dim": [{"size": "1"}, {"size": "1"}, {"size": "64"}, {"size": "384"}]}}}, "dtype": {"type": "DT_FLOAT"}}}, {"name": "StatefulPartitionedCall/audio_model/model/block_15_project/Conv2D_bn_offset", "op": "Const", "attr": {"dtype": {"type": "DT_FLOAT"}, "value": {"tensor": {"dtype": "DT_FLOAT", "tensorShape": {"dim": [{"size": "160"}]}}}}}, {"name": "StatefulPartitionedCall/audio_model/model/block_9_expand/Conv2D_bn_offset", "op": "Const", "attr": {"value": {"tensor": {"dtype": "DT_FLOAT", "tensorShape": {"dim": [{"size": "384"}]}}}, "dtype": {"type": "DT_FLOAT"}}}, {"name": "StatefulPartitionedCall/audio_model/model/block_9_depthwise/depthwise_weights", "op": "Const", "attr": {"value": {"tensor": {"dtype": "DT_FLOAT", "tensorShape": {"dim": [{"size": "3"}, {"size": "3"}, {"size": "384"}, {"size": "1"}]}}}, "dtype": {"type": "DT_FLOAT"}}}, {"name": "StatefulPartitionedCall/audio_model/model/block_9_depthwise/depthwise_bn_offset", "op": "Const", "attr": {"value": {"tensor": {"dtype": "DT_FLOAT", "tensorShape": {"dim": [{"size": "384"}]}}}, "dtype": {"type": "DT_FLOAT"}}}, {"name": "StatefulPartitionedCall/audio_model/model/block_9_project/Conv2D_weights", "op": "Const", "attr": {"value": {"tensor": {"dtype": "DT_FLOAT", "tensorShape": {"dim": [{"size": "1"}, {"size": "1"}, {"size": "384"}, {"size": "64"}]}}}, "dtype": {"type": "DT_FLOAT"}}}, {"name": "StatefulPartitionedCall/audio_model/model/block_9_project/Conv2D_bn_offset", "op": "Const", "attr": {"value": {"tensor": {"dtype": "DT_FLOAT", "tensorShape": {"dim": [{"size": "64"}]}}}, "dtype": {"type": "DT_FLOAT"}}}, {"name": "StatefulPartitionedCall/audio_model/model/block_10_expand/Conv2D_weights", "op": "Const", "attr": {"value": {"tensor": {"dtype": "DT_FLOAT", "tensorShape": {"dim": [{"size": "1"}, {"size": "1"}, {"size": "64"}, {"size": "384"}]}}}, "dtype": {"type": "DT_FLOAT"}}}, {"name": "StatefulPartitionedCall/audio_model/model/block_16_expand/Conv2D_weights", "op": "Const", "attr": {"dtype": {"type": "DT_FLOAT"}, "value": {"tensor": {"dtype": "DT_FLOAT", "tensorShape": {"dim": [{"size": "1"}, {"size": "1"}, {"size": "160"}, {"size": "960"}]}}}}}, {"name": "StatefulPartitionedCall/audio_model/model/block_10_expand/Conv2D_bn_offset", "op": "Const", "attr": {"value": {"tensor": {"dtype": "DT_FLOAT", "tensorShape": {"dim": [{"size": "384"}]}}}, "dtype": {"type": "DT_FLOAT"}}}, {"name": "StatefulPartitionedCall/audio_model/model/block_10_depthwise/depthwise_weights", "op": "Const", "attr": {"value": {"tensor": {"dtype": "DT_FLOAT", "tensorShape": {"dim": [{"size": "3"}, {"size": "3"}, {"size": "384"}, {"size": "1"}]}}}, "dtype": {"type": "DT_FLOAT"}}}, {"name": "StatefulPartitionedCall/audio_model/model/block_10_depthwise/depthwise_bn_offset", "op": "Const", "attr": {"value": {"tensor": {"dtype": "DT_FLOAT", "tensorShape": {"dim": [{"size": "384"}]}}}, "dtype": {"type": "DT_FLOAT"}}}, {"name": "StatefulPartitionedCall/audio_model/model/block_10_project/Conv2D_weights", "op": "Const", "attr": {"value": {"tensor": {"dtype": "DT_FLOAT", "tensorShape": {"dim": [{"size": "1"}, {"size": "1"}, {"size": "384"}, {"size": "96"}]}}}, "dtype": {"type": "DT_FLOAT"}}}, {"name": "StatefulPartitionedCall/audio_model/model/block_16_expand/Conv2D_bn_offset", "op": "Const", "attr": {"value": {"tensor": {"dtype": "DT_FLOAT", "tensorShape": {"dim": [{"size": "960"}]}}}, "dtype": {"type": "DT_FLOAT"}}}, {"name": "StatefulPartitionedCall/audio_model/model/block_10_project/Conv2D_bn_offset", "op": "Const", "attr": {"dtype": {"type": "DT_FLOAT"}, "value": {"tensor": {"dtype": "DT_FLOAT", "tensorShape": {"dim": [{"size": "96"}]}}}}}, {"name": "StatefulPartitionedCall/audio_model/model/block_11_expand/Conv2D_weights", "op": "Const", "attr": {"dtype": {"type": "DT_FLOAT"}, "value": {"tensor": {"dtype": "DT_FLOAT", "tensorShape": {"dim": [{"size": "1"}, {"size": "1"}, {"size": "96"}, {"size": "576"}]}}}}}, {"name": "StatefulPartitionedCall/audio_model/model/block_11_expand/Conv2D_bn_offset", "op": "Const", "attr": {"value": {"tensor": {"dtype": "DT_FLOAT", "tensorShape": {"dim": [{"size": "576"}]}}}, "dtype": {"type": "DT_FLOAT"}}}, {"name": "StatefulPartitionedCall/audio_model/model/block_11_depthwise/depthwise_weights", "op": "Const", "attr": {"value": {"tensor": {"dtype": "DT_FLOAT", "tensorShape": {"dim": [{"size": "3"}, {"size": "3"}, {"size": "576"}, {"size": "1"}]}}}, "dtype": {"type": "DT_FLOAT"}}}, {"name": "StatefulPartitionedCall/audio_model/model/block_11_depthwise/depthwise_bn_offset", "op": "Const", "attr": {"value": {"tensor": {"dtype": "DT_FLOAT", "tensorShape": {"dim": [{"size": "576"}]}}}, "dtype": {"type": "DT_FLOAT"}}}, {"name": "StatefulPartitionedCall/audio_model/model/block_11_project/Conv2D_weights", "op": "Const", "attr": {"value": {"tensor": {"dtype": "DT_FLOAT", "tensorShape": {"dim": [{"size": "1"}, {"size": "1"}, {"size": "576"}, {"size": "96"}]}}}, "dtype": {"type": "DT_FLOAT"}}}, {"name": "StatefulPartitionedCall/audio_model/model/block_16_depthwise/depthwise_weights", "op": "Const", "attr": {"value": {"tensor": {"dtype": "DT_FLOAT", "tensorShape": {"dim": [{"size": "3"}, {"size": "3"}, {"size": "960"}, {"size": "1"}]}}}, "dtype": {"type": "DT_FLOAT"}}}, {"name": "StatefulPartitionedCall/audio_model/model/block_11_project/Conv2D_bn_offset", "op": "Const", "attr": {"value": {"tensor": {"dtype": "DT_FLOAT", "tensorShape": {"dim": [{"size": "96"}]}}}, "dtype": {"type": "DT_FLOAT"}}}, {"name": "StatefulPartitionedCall/audio_model/model/block_12_expand/Conv2D_weights", "op": "Const", "attr": {"value": {"tensor": {"dtype": "DT_FLOAT", "tensorShape": {"dim": [{"size": "1"}, {"size": "1"}, {"size": "96"}, {"size": "576"}]}}}, "dtype": {"type": "DT_FLOAT"}}}, {"name": "StatefulPartitionedCall/audio_model/model/block_12_expand/Conv2D_bn_offset", "op": "Const", "attr": {"value": {"tensor": {"dtype": "DT_FLOAT", "tensorShape": {"dim": [{"size": "576"}]}}}, "dtype": {"type": "DT_FLOAT"}}}, {"name": "StatefulPartitionedCall/audio_model/model/block_16_depthwise/depthwise_bn_offset", "op": "Const", "attr": {"value": {"tensor": {"dtype": "DT_FLOAT", "tensorShape": {"dim": [{"size": "960"}]}}}, "dtype": {"type": "DT_FLOAT"}}}, {"name": "StatefulPartitionedCall/audio_model/model/block_12_depthwise/depthwise_weights", "op": "Const", "attr": {"value": {"tensor": {"dtype": "DT_FLOAT", "tensorShape": {"dim": [{"size": "3"}, {"size": "3"}, {"size": "576"}, {"size": "1"}]}}}, "dtype": {"type": "DT_FLOAT"}}}, {"name": "StatefulPartitionedCall/audio_model/model/block_12_depthwise/depthwise_bn_offset", "op": "Const", "attr": {"dtype": {"type": "DT_FLOAT"}, "value": {"tensor": {"dtype": "DT_FLOAT", "tensorShape": {"dim": [{"size": "576"}]}}}}}, {"name": "StatefulPartitionedCall/audio_model/model/block_12_project/Conv2D_weights", "op": "Const", "attr": {"value": {"tensor": {"dtype": "DT_FLOAT", "tensorShape": {"dim": [{"size": "1"}, {"size": "1"}, {"size": "576"}, {"size": "96"}]}}}, "dtype": {"type": "DT_FLOAT"}}}, {"name": "StatefulPartitionedCall/audio_model/model/block_12_project/Conv2D_bn_offset", "op": "Const", "attr": {"value": {"tensor": {"dtype": "DT_FLOAT", "tensorShape": {"dim": [{"size": "96"}]}}}, "dtype": {"type": "DT_FLOAT"}}}, {"name": "StatefulPartitionedCall/audio_model/model/block_13_expand/Conv2D_weights", "op": "Const", "attr": {"value": {"tensor": {"dtype": "DT_FLOAT", "tensorShape": {"dim": [{"size": "1"}, {"size": "1"}, {"size": "96"}, {"size": "576"}]}}}, "dtype": {"type": "DT_FLOAT"}}}, {"name": "StatefulPartitionedCall/audio_model/model/block_13_expand/Conv2D_bn_offset", "op": "Const", "attr": {"value": {"tensor": {"dtype": "DT_FLOAT", "tensorShape": {"dim": [{"size": "576"}]}}}, "dtype": {"type": "DT_FLOAT"}}}, {"name": "StatefulPartitionedCall/audio_model/model/block_16_project/Conv2D_weights", "op": "Const", "attr": {"value": {"tensor": {"dtype": "DT_FLOAT", "tensorShape": {"dim": [{"size": "1"}, {"size": "1"}, {"size": "960"}, {"size": "320"}]}}}, "dtype": {"type": "DT_FLOAT"}}}, {"name": "StatefulPartitionedCall/audio_model/model/block_13_depthwise/depthwise_weights", "op": "Const", "attr": {"value": {"tensor": {"dtype": "DT_FLOAT", "tensorShape": {"dim": [{"size": "3"}, {"size": "3"}, {"size": "576"}, {"size": "1"}]}}}, "dtype": {"type": "DT_FLOAT"}}}, {"name": "StatefulPartitionedCall/audio_model/model/block_13_depthwise/depthwise_bn_offset", "op": "Const", "attr": {"value": {"tensor": {"dtype": "DT_FLOAT", "tensorShape": {"dim": [{"size": "576"}]}}}, "dtype": {"type": "DT_FLOAT"}}}, {"name": "StatefulPartitionedCall/audio_model/model/block_13_project/Conv2D_weights", "op": "Const", "attr": {"value": {"tensor": {"dtype": "DT_FLOAT", "tensorShape": {"dim": [{"size": "1"}, {"size": "1"}, {"size": "576"}, {"size": "160"}]}}}, "dtype": {"type": "DT_FLOAT"}}}, {"name": "StatefulPartitionedCall/audio_model/model/block_13_project/Conv2D_bn_offset", "op": "Const", "attr": {"dtype": {"type": "DT_FLOAT"}, "value": {"tensor": {"dtype": "DT_FLOAT", "tensorShape": {"dim": [{"size": "160"}]}}}}}, {"name": "StatefulPartitionedCall/audio_model/Squeeze", "op": "Squeeze", "input": ["input_1"], "attr": {"T": {"type": "DT_FLOAT"}, "squeeze_dims": {"list": {}}}}, {"name": "StatefulPartitionedCall/audio_model/stft/frame/Reshape_3", "op": "Const", "input": ["^input_1"], "attr": {"value": {"tensor": {"dtype": "DT_INT32", "tensorShape": {"dim": [{"size": "1"}, {"size": "551"}]}}}, "dtype": {"type": "DT_INT32"}}}, {"name": "StatefulPartitionedCall/audio_model/stft/frame/floordiv_2", "op": "Const", "input": ["^input_1"], "attr": {"value": {"tensor": {"dtype": "DT_INT32", "tensorShape": {}}}, "dtype": {"type": "DT_INT32"}}}, {"name": "StatefulPartitionedCall/audio_model/stft/frame_length", "op": "Const", "input": ["^input_1"], "attr": {"value": {"tensor": {"dtype": "DT_INT32", "tensorShape": {}}}, "dtype": {"type": "DT_INT32"}}}, {"name": "StatefulPartitionedCall/audio_model/stft/hann_window/sub_2", "op": "Const", "input": ["^input_1"], "attr": {"dtype": {"type": "DT_FLOAT"}, "value": {"tensor": {"dtype": "DT_FLOAT", "tensorShape": {"dim": [{"size": "551"}]}}}}}, {"name": "StatefulPartitionedCall/audio_model/stft/frame/strided_slice/stack", "op": "Const", "input": ["^input_1"], "attr": {"value": {"tensor": {"dtype": "DT_INT32", "tensorShape": {"dim": [{"size": "1"}]}}}, "dtype": {"type": "DT_INT32"}}}, {"name": "StatefulPartitionedCall/audio_model/stft/frame/strided_slice/stack_1", "op": "Const", "input": ["^input_1"], "attr": {"value": {"tensor": {"dtype": "DT_INT32", "tensorShape": {"dim": [{"size": "1"}]}}}, "dtype": {"type": "DT_INT32"}}}, {"name": "StatefulPartitionedCall/audio_model/stft/rfft/packed", "op": "Const", "input": ["^input_1"], "attr": {"value": {"tensor": {"dtype": "DT_INT32", "tensorShape": {"dim": [{"size": "1"}]}}}, "dtype": {"type": "DT_INT32"}}}, {"name": "StatefulPartitionedCall/audio_model/stft/frame/Reshape/shape", "op": "Const", "input": ["^input_1"], "attr": {"value": {"tensor": {"dtype": "DT_INT32", "tensorShape": {"dim": [{}]}}}, "dtype": {"type": "DT_INT32"}}}, {"name": "StatefulPartitionedCall/audio_model/stft/frame/strided_slice/stack_2", "op": "Const", "input": ["^input_1"], "attr": {"value": {"tensor": {"dtype": "DT_INT32", "tensorShape": {"dim": [{"size": "1"}]}}}, "dtype": {"type": "DT_INT32"}}}, {"name": "StatefulPartitionedCall/audio_model/truediv", "op": "Const", "input": ["^input_1"], "attr": {"value": {"tensor": {"dtype": "DT_FLOAT", "tensorShape": {}}}, "dtype": {"type": "DT_FLOAT"}}}, {"name": "StatefulPartitionedCall/audio_model/stft/rfft/sub/y", "op": "Const", "input": ["^input_1"], "attr": {"value": {"tensor": {"dtype": "DT_INT32", "tensorShape": {}}}, "dtype": {"type": "DT_INT32"}}}, {"name": "StatefulPartitionedCall/audio_model/ExpandDims/dim", "op": "Const", "input": ["^input_1"], "attr": {"value": {"tensor": {"dtype": "DT_INT32", "tensorShape": {}}}, "dtype": {"type": "DT_INT32"}}}, {"name": "StatefulPartitionedCall/audio_model/Tile/multiples", "op": "Const", "input": ["^input_1"], "attr": {"value": {"tensor": {"dtype": "DT_INT32", "tensorShape": {"dim": [{"size": "3"}]}}}, "dtype": {"type": "DT_INT32"}}}, {"name": "StatefulPartitionedCall/audio_model/range_1/start", "op": "Const", "input": ["^input_1"], "attr": {"value": {"tensor": {"dtype": "DT_INT32", "tensorShape": {}}}, "dtype": {"type": "DT_INT32"}}}, {"name": "StatefulPartitionedCall/audio_model/model/Conv1_pad/Pad/paddings", "op": "Const", "input": ["^input_1"], "attr": {"value": {"tensor": {"dtype": "DT_INT32", "tensorShape": {"dim": [{"size": "4"}, {"size": "2"}]}}}, "dtype": {"type": "DT_INT32"}}}, {"name": "StatefulPartitionedCall/audio_model/model/global_average_pooling2d/Mean/reduction_indices", "op": "Const", "input": ["^input_1"], "attr": {"dtype": {"type": "DT_INT32"}, "value": {"tensor": {"dtype": "DT_INT32", "tensorShape": {"dim": [{"size": "2"}]}}}}}, {"name": "Func/StatefulPartitionedCall/input/_262", "op": "Const", "input": ["^input_1"], "attr": {"value": {"tensor": {"dtype": "DT_FLOAT", "tensorShape": {"dim": [{"size": "1280"}, {"size": "22"}]}}}, "dtype": {"type": "DT_FLOAT"}}}, {"name": "Func/StatefulPartitionedCall/input/_263", "op": "Const", "input": ["^input_1"], "attr": {"value": {"tensor": {"dtype": "DT_FLOAT", "tensorShape": {"dim": [{"size": "22"}]}}}, "dtype": {"type": "DT_FLOAT"}}}, {"name": "StatefulPartitionedCall/audio_model/stft/frame/Shape", "op": "Shape", "input": ["StatefulPartitionedCall/audio_model/Squeeze"], "attr": {"T": {"type": "DT_FLOAT"}, "out_type": {"type": "DT_INT32"}}}, {"name": "StatefulPartitionedCall/audio_model/stft/frame/Rank", "op": "Rank", "input": ["StatefulPartitionedCall/audio_model/Squeeze"], "attr": {"T": {"type": "DT_FLOAT"}}}, {"name": "StatefulPartitionedCall/audio_model/linear_to_mel_weight_matrix", "op": "Const", "input": ["^StatefulPartitionedCall/audio_model/range_1/start", "^StatefulPartitionedCall/audio_model/stft/frame/Reshape/shape", "^StatefulPartitionedCall/audio_model/stft/frame/strided_slice/stack_2", "^StatefulPartitionedCall/audio_model/stft/rfft/sub/y"], "attr": {"value": {"tensor": {"dtype": "DT_FLOAT", "tensorShape": {"dim": [{"size": "513"}, {"size": "96"}]}}}, "dtype": {"type": "DT_FLOAT"}}}, {"name": "StatefulPartitionedCall/audio_model/stft/frame/zeros_like", "op": "ZerosLike", "input": ["StatefulPartitionedCall/audio_model/stft/frame/Shape"], "attr": {"T": {"type": "DT_INT32"}}}, {"name": "StatefulPartitionedCall/audio_model/stft/frame/sub", "op": "Sub", "input": ["StatefulPartitionedCall/audio_model/stft/frame/Rank", "StatefulPartitionedCall/audio_model/stft/rfft/sub/y"], "attr": {"T": {"type": "DT_INT32"}}}, {"name": "StatefulPartitionedCall/audio_model/stft/frame/range", "op": "Range", "input": ["StatefulPartitionedCall/audio_model/range_1/start", "StatefulPartitionedCall/audio_model/stft/frame/Rank", "StatefulPartitionedCall/audio_model/stft/rfft/sub/y"], "attr": {"Tidx": {"type": "DT_INT32"}}}, {"name": "StatefulPartitionedCall/audio_model/stft/frame/ones_like/Shape", "op": "Shape", "input": ["StatefulPartitionedCall/audio_model/stft/frame/zeros_like"], "attr": {"T": {"type": "DT_INT32"}, "out_type": {"type": "DT_INT32"}}}, {"name": "StatefulPartitionedCall/audio_model/stft/frame/strided_slice", "op": "StridedSlice", "input": ["StatefulPartitionedCall/audio_model/stft/frame/range", "StatefulPartitionedCall/audio_model/stft/frame/strided_slice/stack", "StatefulPartitionedCall/audio_model/stft/frame/strided_slice/stack_1", "StatefulPartitionedCall/audio_model/stft/frame/strided_slice/stack_2"], "attr": {"T": {"type": "DT_INT32"}, "Index": {"type": "DT_INT32"}, "shrink_axis_mask": {"i": "1"}, "ellipsis_mask": {"i": "0"}, "begin_mask": {"i": "0"}, "new_axis_mask": {"i": "0"}, "end_mask": {"i": "0"}}}, {"name": "StatefulPartitionedCall/audio_model/stft/frame/ones_like", "op": "Fill", "input": ["StatefulPartitionedCall/audio_model/stft/frame/ones_like/Shape", "StatefulPartitionedCall/audio_model/stft/rfft/sub/y"], "attr": {"T": {"type": "DT_INT32"}, "index_type": {"type": "DT_INT32"}}}, {"name": "StatefulPartitionedCall/audio_model/stft/frame/sub_1", "op": "Sub", "input": ["StatefulPartitionedCall/audio_model/stft/frame/sub", "StatefulPartitionedCall/audio_model/stft/frame/strided_slice"], "attr": {"T": {"type": "DT_INT32"}}}, {"name": "StatefulPartitionedCall/audio_model/stft/frame/packed", "op": "Pack", "input": ["StatefulPartitionedCall/audio_model/stft/frame/strided_slice", "StatefulPartitionedCall/audio_model/stft/rfft/sub/y", "StatefulPartitionedCall/audio_model/stft/frame/sub_1"], "attr": {"axis": {"i": "0"}, "N": {"i": "3"}, "T": {"type": "DT_INT32"}}}, {"name": "StatefulPartitionedCall/audio_model/stft/frame/split", "op": "SplitV", "input": ["StatefulPartitionedCall/audio_model/stft/frame/Shape", "StatefulPartitionedCall/audio_model/stft/frame/packed", "StatefulPartitionedCall/audio_model/range_1/start"], "attr": {"Tlen": {"type": "DT_INT32"}, "num_split": {"i": "3"}, "T": {"type": "DT_INT32"}}}, {"name": "StatefulPartitionedCall/audio_model/stft/frame/Reshape", "op": "Reshape", "input": ["StatefulPartitionedCall/audio_model/stft/frame/split:1", "StatefulPartitionedCall/audio_model/stft/frame/Reshape/shape"], "attr": {"T": {"type": "DT_INT32"}, "Tshape": {"type": "DT_INT32"}}}, {"name": "StatefulPartitionedCall/audio_model/stft/frame/concat_1/values_1", "op": "Pack", "input": ["StatefulPartitionedCall/audio_model/stft/frame/Reshape", "StatefulPartitionedCall/audio_model/stft/rfft/sub/y"], "attr": {"T": {"type": "DT_INT32"}, "axis": {"i": "0"}, "N": {"i": "2"}}}, {"name": "StatefulPartitionedCall/audio_model/stft/frame/sub_2", "op": "Sub", "input": ["StatefulPartitionedCall/audio_model/stft/frame/Reshape", "StatefulPartitionedCall/audio_model/stft/frame_length"], "attr": {"T": {"type": "DT_INT32"}}}, {"name": "ConstantFolding/StatefulPartitionedCall/audio_model/stft/frame/concat/values_1_const_axis", "op": "Const", "input": ["^StatefulPartitionedCall/audio_model/stft/frame/Reshape"], "attr": {"value": {"tensor": {"dtype": "DT_INT32", "tensorShape": {}}}, "dtype": {"type": "DT_INT32"}}}, {"name": "StatefulPartitionedCall/audio_model/stft/frame/concat_1", "op": "ConcatV2", "input": ["StatefulPartitionedCall/audio_model/stft/frame/split", "StatefulPartitionedCall/audio_model/stft/frame/concat_1/values_1", "StatefulPartitionedCall/audio_model/stft/frame/split:2", "StatefulPartitionedCall/audio_model/range_1/start"], "attr": {"Tidx": {"type": "DT_INT32"}, "T": {"type": "DT_INT32"}, "N": {"i": "3"}}}, {"name": "StatefulPartitionedCall/audio_model/stft/frame/floordiv", "op": "FloorDiv", "input": ["StatefulPartitionedCall/audio_model/stft/frame/sub_2", "StatefulPartitionedCall/audio_model/stft/frame/floordiv_2"], "attr": {"T": {"type": "DT_INT32"}}}, {"name": "StatefulPartitionedCall/audio_model/stft/frame/concat/values_1", "op": "ExpandDims", "input": ["StatefulPartitionedCall/audio_model/stft/frame/Reshape", "ConstantFolding/StatefulPartitionedCall/audio_model/stft/frame/concat/values_1_const_axis"], "attr": {"Tdim": {"type": "DT_INT32"}, "T": {"type": "DT_INT32"}}}, {"name": "StatefulPartitionedCall/audio_model/stft/frame/add", "op": "AddV2", "input": ["StatefulPartitionedCall/audio_model/stft/frame/floordiv", "StatefulPartitionedCall/audio_model/stft/rfft/sub/y"], "attr": {"T": {"type": "DT_INT32"}}}, {"name": "StatefulPartitionedCall/audio_model/stft/frame/concat", "op": "ConcatV2", "input": ["StatefulPartitionedCall/audio_model/stft/frame/split", "StatefulPartitionedCall/audio_model/stft/frame/concat/values_1", "StatefulPartitionedCall/audio_model/stft/frame/split:2", "StatefulPartitionedCall/audio_model/range_1/start"], "attr": {"T": {"type": "DT_INT32"}, "N": {"i": "3"}, "Tidx": {"type": "DT_INT32"}}}, {"name": "StatefulPartitionedCall/audio_model/stft/frame/Maximum", "op": "Maximum", "input": ["StatefulPartitionedCall/audio_model/range_1/start", "StatefulPartitionedCall/audio_model/stft/frame/add"], "attr": {"T": {"type": "DT_INT32"}}}, {"name": "StatefulPartitionedCall/audio_model/stft/frame/StridedSlice", "op": "StridedSlice", "input": ["StatefulPartitionedCall/audio_model/Squeeze", "StatefulPartitionedCall/audio_model/stft/frame/zeros_like", "StatefulPartitionedCall/audio_model/stft/frame/concat", "StatefulPartitionedCall/audio_model/stft/frame/ones_like"], "attr": {"shrink_axis_mask": {"i": "0"}, "ellipsis_mask": {"i": "0"}, "begin_mask": {"i": "0"}, "new_axis_mask": {"i": "0"}, "end_mask": {"i": "0"}, "Index": {"type": "DT_INT32"}, "T": {"type": "DT_FLOAT"}}}, {"name": "StatefulPartitionedCall/audio_model/stft/frame/Reshape_2/shape", "op": "Pack", "input": ["StatefulPartitionedCall/audio_model/stft/frame/Maximum", "StatefulPartitionedCall/audio_model/stft/rfft/sub/y"], "attr": {"T": {"type": "DT_INT32"}, "axis": {"i": "0"}, "N": {"i": "2"}}}, {"name": "StatefulPartitionedCall/audio_model/stft/frame/concat_2/values_1", "op": "Pack", "input": ["StatefulPartitionedCall/audio_model/stft/frame/Maximum", "StatefulPartitionedCall/audio_model/stft/frame_length"], "attr": {"T": {"type": "DT_INT32"}, "axis": {"i": "0"}, "N": {"i": "2"}}}, {"name": "StatefulPartitionedCall/audio_model/stft/frame/range_1", "op": "Range", "input": ["StatefulPartitionedCall/audio_model/range_1/start", "StatefulPartitionedCall/audio_model/stft/frame/Maximum", "StatefulPartitionedCall/audio_model/stft/rfft/sub/y"], "attr": {"Tidx": {"type": "DT_INT32"}}}, {"name": "StatefulPartitionedCall/audio_model/stft/frame/Reshape_1", "op": "Reshape", "input": ["StatefulPartitionedCall/audio_model/stft/frame/StridedSlice", "StatefulPartitionedCall/audio_model/stft/frame/concat_1"], "attr": {"T": {"type": "DT_FLOAT"}, "Tshape": {"type": "DT_INT32"}}}, {"name": "StatefulPartitionedCall/audio_model/stft/frame/concat_2", "op": "ConcatV2", "input": ["StatefulPartitionedCall/audio_model/stft/frame/split", "StatefulPartitionedCall/audio_model/stft/frame/concat_2/values_1", "StatefulPartitionedCall/audio_model/stft/frame/split:2", "StatefulPartitionedCall/audio_model/range_1/start"], "attr": {"N": {"i": "3"}, "Tidx": {"type": "DT_INT32"}, "T": {"type": "DT_INT32"}}}, {"name": "StatefulPartitionedCall/audio_model/stft/frame/mul_1", "op": "Mul", "input": ["StatefulPartitionedCall/audio_model/stft/frame/floordiv_2", "StatefulPartitionedCall/audio_model/stft/frame/range_1"], "attr": {"T": {"type": "DT_INT32"}}}, {"name": "StatefulPartitionedCall/audio_model/stft/frame/Reshape_2", "op": "Reshape", "input": ["StatefulPartitionedCall/audio_model/stft/frame/mul_1", "StatefulPartitionedCall/audio_model/stft/frame/Reshape_2/shape"], "attr": {"T": {"type": "DT_INT32"}, "Tshape": {"type": "DT_INT32"}}}, {"name": "StatefulPartitionedCall/audio_model/stft/frame/add_1", "op": "AddV2", "input": ["StatefulPartitionedCall/audio_model/stft/frame/Reshape_2", "StatefulPartitionedCall/audio_model/stft/frame/Reshape_3"], "attr": {"T": {"type": "DT_INT32"}}}, {"name": "StatefulPartitionedCall/audio_model/stft/frame/GatherV2", "op": "GatherV2", "input": ["StatefulPartitionedCall/audio_model/stft/frame/Reshape_1", "StatefulPartitionedCall/audio_model/stft/frame/add_1", "StatefulPartitionedCall/audio_model/stft/frame/strided_slice"], "attr": {"Taxis": {"type": "DT_INT32"}, "batch_dims": {"i": "0"}, "Tindices": {"type": "DT_INT32"}, "Tparams": {"type": "DT_FLOAT"}}}, {"name": "StatefulPartitionedCall/audio_model/stft/frame/Reshape_4", "op": "Reshape", "input": ["StatefulPartitionedCall/audio_model/stft/frame/GatherV2", "StatefulPartitionedCall/audio_model/stft/frame/concat_2"], "attr": {"T": {"type": "DT_FLOAT"}, "Tshape": {"type": "DT_INT32"}}}, {"name": "StatefulPartitionedCall/audio_model/stft/mul", "op": "Mul", "input": ["StatefulPartitionedCall/audio_model/stft/frame/Reshape_4", "StatefulPartitionedCall/audio_model/stft/hann_window/sub_2"], "attr": {"T": {"type": "DT_FLOAT"}}}, {"name": "StatefulPartitionedCall/audio_model/stft/rfft/Rank", "op": "Rank", "input": ["StatefulPartitionedCall/audio_model/stft/mul"], "attr": {"T": {"type": "DT_FLOAT"}}}, {"name": "StatefulPartitionedCall/audio_model/stft/rfft/Shape", "op": "Shape", "input": ["StatefulPartitionedCall/audio_model/stft/mul"], "attr": {"T": {"type": "DT_FLOAT"}, "out_type": {"type": "DT_INT32"}}}, {"name": "StatefulPartitionedCall/audio_model/stft/rfft/sub", "op": "Sub", "input": ["StatefulPartitionedCall/audio_model/stft/rfft/Rank", "StatefulPartitionedCall/audio_model/stft/rfft/sub/y"], "attr": {"T": {"type": "DT_INT32"}}}, {"name": "StatefulPartitionedCall/audio_model/stft/rfft/strided_slice", "op": "StridedSlice", "input": ["StatefulPartitionedCall/audio_model/stft/rfft/Shape", "StatefulPartitionedCall/audio_model/stft/frame/strided_slice/stack", "StatefulPartitionedCall/audio_model/stft/frame/strided_slice/stack_1", "StatefulPartitionedCall/audio_model/stft/frame/strided_slice/stack_2"], "attr": {"shrink_axis_mask": {"i": "0"}, "begin_mask": {"i": "0"}, "ellipsis_mask": {"i": "0"}, "new_axis_mask": {"i": "0"}, "end_mask": {"i": "1"}, "Index": {"type": "DT_INT32"}, "T": {"type": "DT_INT32"}}}, {"name": "StatefulPartitionedCall/audio_model/stft/rfft/Maximum", "op": "Maximum", "input": ["StatefulPartitionedCall/audio_model/range_1/start", "StatefulPartitionedCall/audio_model/stft/rfft/sub"], "attr": {"T": {"type": "DT_INT32"}}}, {"name": "StatefulPartitionedCall/audio_model/stft/rfft/sub_1", "op": "Sub", "input": ["StatefulPartitionedCall/audio_model/stft/rfft/packed", "StatefulPartitionedCall/audio_model/stft/rfft/strided_slice"], "attr": {"T": {"type": "DT_INT32"}}}, {"name": "ConstantFolding/StatefulPartitionedCall/audio_model/stft/rfft/zeros/packed_const_axis", "op": "Const", "input": ["^StatefulPartitionedCall/audio_model/stft/rfft/Maximum"], "attr": {"value": {"tensor": {"dtype": "DT_INT32", "tensorShape": {}}}, "dtype": {"type": "DT_INT32"}}}, {"name": "StatefulPartitionedCall/audio_model/stft/rfft/Maximum_1", "op": "Maximum", "input": ["StatefulPartitionedCall/audio_model/range_1/start", "StatefulPartitionedCall/audio_model/stft/rfft/sub_1"], "attr": {"T": {"type": "DT_INT32"}}}, {"name": "StatefulPartitionedCall/audio_model/stft/rfft/zeros/packed", "op": "ExpandDims", "input": ["StatefulPartitionedCall/audio_model/stft/rfft/Maximum", "ConstantFolding/StatefulPartitionedCall/audio_model/stft/rfft/zeros/packed_const_axis"], "attr": {"T": {"type": "DT_INT32"}, "Tdim": {"type": "DT_INT32"}}}, {"name": "StatefulPartitionedCall/audio_model/stft/rfft/zeros", "op": "Fill", "input": ["StatefulPartitionedCall/audio_model/stft/rfft/zeros/packed", "StatefulPartitionedCall/audio_model/range_1/start"], "attr": {"index_type": {"type": "DT_INT32"}, "T": {"type": "DT_INT32"}}}, {"name": "StatefulPartitionedCall/audio_model/stft/rfft/concat", "op": "ConcatV2", "input": ["StatefulPartitionedCall/audio_model/stft/rfft/zeros", "StatefulPartitionedCall/audio_model/stft/rfft/Maximum_1", "StatefulPartitionedCall/audio_model/range_1/start"], "attr": {"Tidx": {"type": "DT_INT32"}, "T": {"type": "DT_INT32"}, "N": {"i": "2"}}}, {"name": "StatefulPartitionedCall/audio_model/stft/rfft/zeros_like", "op": "ZerosLike", "input": ["StatefulPartitionedCall/audio_model/stft/rfft/concat"], "attr": {"T": {"type": "DT_INT32"}}}, {"name": "StatefulPartitionedCall/audio_model/stft/rfft/stack", "op": "Pack", "input": ["StatefulPartitionedCall/audio_model/stft/rfft/zeros_like", "StatefulPartitionedCall/audio_model/stft/rfft/concat"], "attr": {"T": {"type": "DT_INT32"}, "axis": {"i": "1"}, "N": {"i": "2"}}}, {"name": "StatefulPartitionedCall/audio_model/stft/rfft/Pad", "op": "Pad", "input": ["StatefulPartitionedCall/audio_model/stft/mul", "StatefulPartitionedCall/audio_model/stft/rfft/stack"], "attr": {"T": {"type": "DT_FLOAT"}, "Tpaddings": {"type": "DT_INT32"}}}, {"name": "StatefulPartitionedCall/audio_model/stft/rfft", "op": "RFFT", "input": ["StatefulPartitionedCall/audio_model/stft/rfft/Pad", "StatefulPartitionedCall/audio_model/stft/rfft/packed"], "attr": {"Treal": {"type": "DT_FLOAT"}, "Tcomplex": {"type": "DT_COMPLEX64"}}}, {"name": "StatefulPartitionedCall/audio_model/Abs", "op": "ComplexAbs", "input": ["StatefulPartitionedCall/audio_model/stft/rfft"], "attr": {"Tout": {"type": "DT_FLOAT"}, "T": {"type": "DT_COMPLEX64"}}}, {"name": "StatefulPartitionedCall/audio_model/MatMul", "op": "BatchMatMulV2", "input": ["StatefulPartitionedCall/audio_model/Abs", "StatefulPartitionedCall/audio_model/linear_to_mel_weight_matrix"], "attr": {"adj_x": {"b": false}, "adj_y": {"b": false}, "T": {"type": "DT_FLOAT"}}}, {"name": "StatefulPartitionedCall/audio_model/Pow", "op": "Pow", "input": ["StatefulPartitionedCall/audio_model/MatMul", "StatefulPartitionedCall/audio_model/truediv"], "attr": {"T": {"type": "DT_FLOAT"}}}, {"name": "StatefulPartitionedCall/audio_model/Rank", "op": "Rank", "input": ["StatefulPartitionedCall/audio_model/Pow"], "attr": {"T": {"type": "DT_FLOAT"}}}, {"name": "StatefulPartitionedCall/audio_model/range", "op": "Range", "input": ["StatefulPartitionedCall/audio_model/range_1/start", "StatefulPartitionedCall/audio_model/Rank", "StatefulPartitionedCall/audio_model/stft/rfft/sub/y"], "attr": {"Tidx": {"type": "DT_INT32"}}}, {"name": "StatefulPartitionedCall/audio_model/Min", "op": "Min", "input": ["StatefulPartitionedCall/audio_model/Pow", "StatefulPartitionedCall/audio_model/range"], "attr": {"T": {"type": "DT_FLOAT"}, "Tidx": {"type": "DT_INT32"}, "keep_dims": {"b": false}}}, {"name": "StatefulPartitionedCall/audio_model/sub", "op": "Sub", "input": ["StatefulPartitionedCall/audio_model/Pow", "StatefulPartitionedCall/audio_model/Min"], "attr": {"T": {"type": "DT_FLOAT"}}}, {"name": "StatefulPartitionedCall/audio_model/Rank_1", "op": "Rank", "input": ["StatefulPartitionedCall/audio_model/sub"], "attr": {"T": {"type": "DT_FLOAT"}}}, {"name": "StatefulPartitionedCall/audio_model/range_1", "op": "Range", "input": ["StatefulPartitionedCall/audio_model/range_1/start", "StatefulPartitionedCall/audio_model/Rank_1", "StatefulPartitionedCall/audio_model/stft/rfft/sub/y"], "attr": {"Tidx": {"type": "DT_INT32"}}}, {"name": "StatefulPartitionedCall/audio_model/Max", "op": "Max", "input": ["StatefulPartitionedCall/audio_model/sub", "StatefulPartitionedCall/audio_model/range_1"], "attr": {"T": {"type": "DT_FLOAT"}, "Tidx": {"type": "DT_INT32"}, "keep_dims": {"b": false}}}, {"name": "StatefulPartitionedCall/audio_model/truediv_1", "op": "RealDiv", "input": ["StatefulPartitionedCall/audio_model/sub", "StatefulPartitionedCall/audio_model/Max"], "attr": {"T": {"type": "DT_FLOAT"}}}, {"name": "StatefulPartitionedCall/audio_model/ExpandDims", "op": "ExpandDims", "input": ["StatefulPartitionedCall/audio_model/truediv_1", "StatefulPartitionedCall/audio_model/ExpandDims/dim"], "attr": {"Tdim": {"type": "DT_INT32"}, "T": {"type": "DT_FLOAT"}}}, {"name": "StatefulPartitionedCall/audio_model/Tile", "op": "Tile", "input": ["StatefulPartitionedCall/audio_model/ExpandDims", "StatefulPartitionedCall/audio_model/Tile/multiples"], "attr": {"Tmultiples": {"type": "DT_INT32"}, "T": {"type": "DT_FLOAT"}}}, {"name": "StatefulPartitionedCall/audio_model/ExpandDims_1", "op": "ExpandDims", "input": ["StatefulPartitionedCall/audio_model/Tile", "StatefulPartitionedCall/audio_model/range_1/start"], "attr": {"Tdim": {"type": "DT_INT32"}, "T": {"type": "DT_FLOAT"}}}, {"name": "StatefulPartitionedCall/audio_model/model/Conv1_pad/Pad", "op": "Pad", "input": ["StatefulPartitionedCall/audio_model/ExpandDims_1", "StatefulPartitionedCall/audio_model/model/Conv1_pad/Pad/paddings"], "attr": {"T": {"type": "DT_FLOAT"}, "Tpaddings": {"type": "DT_INT32"}}}, {"name": "StatefulPartitionedCall/audio_model/model/Conv1_relu/Relu6", "op": "_FusedConv2D", "input": ["StatefulPartitionedCall/audio_model/model/Conv1_pad/Pad", "StatefulPartitionedCall/audio_model/model/Conv1/Conv2D_weights", "StatefulPartitionedCall/audio_model/model/Conv1/Conv2D_bn_offset"], "device": "/device:CPU:0", "attr": {"num_args": {"i": "1"}, "epsilon": {"f": 0.0}, "padding": {"s": "VkFMSUQ="}, "fused_ops": {"list": {"s": ["Qmlhc0FkZA==", "UmVsdTY="]}}, "dilations": {"list": {"i": ["1", "1", "1", "1"]}}, "T": {"type": "DT_FLOAT"}, "strides": {"list": {"i": ["1", "2", "2", "1"]}}, "data_format": {"s": "TkhXQw=="}, "explicit_paddings": {"list": {}}, "use_cudnn_on_gpu": {"b": true}}}, {"name": "StatefulPartitionedCall/audio_model/model/expanded_conv_depthwise/depthwise", "op": "FusedDepthwiseConv2dNative", "input": ["StatefulPartitionedCall/audio_model/model/Conv1_relu/Relu6", "StatefulPartitionedCall/audio_model/model/expanded_conv_depthwise/depthwise_weights", "StatefulPartitionedCall/audio_model/model/expanded_conv_depthwise/depthwise_bn_offset"], "attr": {"data_format": {"s": "TkhXQw=="}, "strides": {"list": {"i": ["1", "1", "1", "1"]}}, "num_args": {"i": "1"}, "padding": {"s": "U0FNRQ=="}, "fused_ops": {"list": {"s": ["Qmlhc0FkZA==", "UmVsdTY="]}}, "dilations": {"list": {"i": ["1", "1", "1", "1"]}}, "T": {"type": "DT_FLOAT"}}}, {"name": "StatefulPartitionedCall/audio_model/model/expanded_conv_project_BN/FusedBatchNormV3", "op": "_FusedConv2D", "input": ["StatefulPartitionedCall/audio_model/model/expanded_conv_depthwise/depthwise", "StatefulPartitionedCall/audio_model/model/expanded_conv_project/Conv2D_weights", "StatefulPartitionedCall/audio_model/model/expanded_conv_project/Conv2D_bn_offset"], "device": "/device:CPU:0", "attr": {"epsilon": {"f": 0.0}, "padding": {"s": "U0FNRQ=="}, "fused_ops": {"list": {"s": ["Qmlhc0FkZA=="]}}, "dilations": {"list": {"i": ["1", "1", "1", "1"]}}, "T": {"type": "DT_FLOAT"}, "strides": {"list": {"i": ["1", "1", "1", "1"]}}, "data_format": {"s": "TkhXQw=="}, "use_cudnn_on_gpu": {"b": true}, "explicit_paddings": {"list": {}}, "num_args": {"i": "1"}}}, {"name": "StatefulPartitionedCall/audio_model/model/block_1_expand_relu/Relu6", "op": "_FusedConv2D", "input": ["StatefulPartitionedCall/audio_model/model/expanded_conv_project_BN/FusedBatchNormV3", "StatefulPartitionedCall/audio_model/model/block_1_expand/Conv2D_weights", "StatefulPartitionedCall/audio_model/model/block_1_expand/Conv2D_bn_offset"], "device": "/device:CPU:0", "attr": {"dilations": {"list": {"i": ["1", "1", "1", "1"]}}, "T": {"type": "DT_FLOAT"}, "strides": {"list": {"i": ["1", "1", "1", "1"]}}, "data_format": {"s": "TkhXQw=="}, "explicit_paddings": {"list": {}}, "use_cudnn_on_gpu": {"b": true}, "num_args": {"i": "1"}, "epsilon": {"f": 0.0}, "padding": {"s": "U0FNRQ=="}, "fused_ops": {"list": {"s": ["Qmlhc0FkZA==", "UmVsdTY="]}}}}, {"name": "StatefulPartitionedCall/audio_model/model/block_1_pad/Pad", "op": "Pad", "input": ["StatefulPartitionedCall/audio_model/model/block_1_expand_relu/Relu6", "StatefulPartitionedCall/audio_model/model/Conv1_pad/Pad/paddings"], "attr": {"T": {"type": "DT_FLOAT"}, "Tpaddings": {"type": "DT_INT32"}}}, {"name": "StatefulPartitionedCall/audio_model/model/block_1_depthwise/depthwise", "op": "FusedDepthwiseConv2dNative", "input": ["StatefulPartitionedCall/audio_model/model/block_1_pad/Pad", "StatefulPartitionedCall/audio_model/model/block_1_depthwise/depthwise_weights", "StatefulPartitionedCall/audio_model/model/block_1_depthwise/depthwise_bn_offset"], "attr": {"fused_ops": {"list": {"s": ["Qmlhc0FkZA==", "UmVsdTY="]}}, "dilations": {"list": {"i": ["1", "1", "1", "1"]}}, "T": {"type": "DT_FLOAT"}, "strides": {"list": {"i": ["1", "2", "2", "1"]}}, "data_format": {"s": "TkhXQw=="}, "num_args": {"i": "1"}, "padding": {"s": "VkFMSUQ="}}}, {"name": "StatefulPartitionedCall/audio_model/model/block_1_project_BN/FusedBatchNormV3", "op": "_FusedConv2D", "input": ["StatefulPartitionedCall/audio_model/model/block_1_depthwise/depthwise", "StatefulPartitionedCall/audio_model/model/block_1_project/Conv2D_weights", "StatefulPartitionedCall/audio_model/model/block_1_project/Conv2D_bn_offset"], "device": "/device:CPU:0", "attr": {"num_args": {"i": "1"}, "epsilon": {"f": 0.0}, "padding": {"s": "U0FNRQ=="}, "fused_ops": {"list": {"s": ["Qmlhc0FkZA=="]}}, "dilations": {"list": {"i": ["1", "1", "1", "1"]}}, "T": {"type": "DT_FLOAT"}, "strides": {"list": {"i": ["1", "1", "1", "1"]}}, "data_format": {"s": "TkhXQw=="}, "use_cudnn_on_gpu": {"b": true}, "explicit_paddings": {"list": {}}}}, {"name": "StatefulPartitionedCall/audio_model/model/block_2_expand_relu/Relu6", "op": "_FusedConv2D", "input": ["StatefulPartitionedCall/audio_model/model/block_1_project_BN/FusedBatchNormV3", "StatefulPartitionedCall/audio_model/model/block_2_expand/Conv2D_weights", "StatefulPartitionedCall/audio_model/model/block_2_expand/Conv2D_bn_offset"], "device": "/device:CPU:0", "attr": {"dilations": {"list": {"i": ["1", "1", "1", "1"]}}, "T": {"type": "DT_FLOAT"}, "strides": {"list": {"i": ["1", "1", "1", "1"]}}, "data_format": {"s": "TkhXQw=="}, "use_cudnn_on_gpu": {"b": true}, "explicit_paddings": {"list": {}}, "num_args": {"i": "1"}, "epsilon": {"f": 0.0}, "padding": {"s": "U0FNRQ=="}, "fused_ops": {"list": {"s": ["Qmlhc0FkZA==", "UmVsdTY="]}}}}, {"name": "StatefulPartitionedCall/audio_model/model/block_2_depthwise/depthwise", "op": "FusedDepthwiseConv2dNative", "input": ["StatefulPartitionedCall/audio_model/model/block_2_expand_relu/Relu6", "StatefulPartitionedCall/audio_model/model/block_2_depthwise/depthwise_weights", "StatefulPartitionedCall/audio_model/model/block_2_depthwise/depthwise_bn_offset"], "attr": {"dilations": {"list": {"i": ["1", "1", "1", "1"]}}, "T": {"type": "DT_FLOAT"}, "data_format": {"s": "TkhXQw=="}, "strides": {"list": {"i": ["1", "1", "1", "1"]}}, "num_args": {"i": "1"}, "padding": {"s": "U0FNRQ=="}, "fused_ops": {"list": {"s": ["Qmlhc0FkZA==", "UmVsdTY="]}}}}, {"name": "StatefulPartitionedCall/audio_model/model/block_2_project_BN/FusedBatchNormV3", "op": "_FusedConv2D", "input": ["StatefulPartitionedCall/audio_model/model/block_2_depthwise/depthwise", "StatefulPartitionedCall/audio_model/model/block_2_project/Conv2D_weights", "StatefulPartitionedCall/audio_model/model/block_2_project/Conv2D_bn_offset"], "device": "/device:CPU:0", "attr": {"num_args": {"i": "1"}, "epsilon": {"f": 0.0}, "padding": {"s": "U0FNRQ=="}, "fused_ops": {"list": {"s": ["Qmlhc0FkZA=="]}}, "dilations": {"list": {"i": ["1", "1", "1", "1"]}}, "T": {"type": "DT_FLOAT"}, "strides": {"list": {"i": ["1", "1", "1", "1"]}}, "data_format": {"s": "TkhXQw=="}, "use_cudnn_on_gpu": {"b": true}, "explicit_paddings": {"list": {}}}}, {"name": "StatefulPartitionedCall/audio_model/model/block_2_add/add", "op": "AddV2", "input": ["StatefulPartitionedCall/audio_model/model/block_1_project_BN/FusedBatchNormV3", "StatefulPartitionedCall/audio_model/model/block_2_project_BN/FusedBatchNormV3"], "attr": {"T": {"type": "DT_FLOAT"}}}, {"name": "StatefulPartitionedCall/audio_model/model/block_3_expand_relu/Relu6", "op": "_FusedConv2D", "input": ["StatefulPartitionedCall/audio_model/model/block_2_add/add", "StatefulPartitionedCall/audio_model/model/block_3_expand/Conv2D_weights", "StatefulPartitionedCall/audio_model/model/block_3_expand/Conv2D_bn_offset"], "device": "/device:CPU:0", "attr": {"epsilon": {"f": 0.0}, "padding": {"s": "U0FNRQ=="}, "fused_ops": {"list": {"s": ["Qmlhc0FkZA==", "UmVsdTY="]}}, "dilations": {"list": {"i": ["1", "1", "1", "1"]}}, "T": {"type": "DT_FLOAT"}, "strides": {"list": {"i": ["1", "1", "1", "1"]}}, "data_format": {"s": "TkhXQw=="}, "explicit_paddings": {"list": {}}, "use_cudnn_on_gpu": {"b": true}, "num_args": {"i": "1"}}}, {"name": "StatefulPartitionedCall/audio_model/model/block_3_pad/Pad", "op": "Pad", "input": ["StatefulPartitionedCall/audio_model/model/block_3_expand_relu/Relu6", "StatefulPartitionedCall/audio_model/model/Conv1_pad/Pad/paddings"], "attr": {"Tpaddings": {"type": "DT_INT32"}, "T": {"type": "DT_FLOAT"}}}, {"name": "StatefulPartitionedCall/audio_model/model/block_3_depthwise/depthwise", "op": "FusedDepthwiseConv2dNative", "input": ["StatefulPartitionedCall/audio_model/model/block_3_pad/Pad", "StatefulPartitionedCall/audio_model/model/block_3_depthwise/depthwise_weights", "StatefulPartitionedCall/audio_model/model/block_3_depthwise/depthwise_bn_offset"], "attr": {"dilations": {"list": {"i": ["1", "1", "1", "1"]}}, "T": {"type": "DT_FLOAT"}, "strides": {"list": {"i": ["1", "2", "2", "1"]}}, "data_format": {"s": "TkhXQw=="}, "num_args": {"i": "1"}, "padding": {"s": "VkFMSUQ="}, "fused_ops": {"list": {"s": ["Qmlhc0FkZA==", "UmVsdTY="]}}}}, {"name": "StatefulPartitionedCall/audio_model/model/block_3_project_BN/FusedBatchNormV3", "op": "_FusedConv2D", "input": ["StatefulPartitionedCall/audio_model/model/block_3_depthwise/depthwise", "StatefulPartitionedCall/audio_model/model/block_3_project/Conv2D_weights", "StatefulPartitionedCall/audio_model/model/block_3_project/Conv2D_bn_offset"], "device": "/device:CPU:0", "attr": {"dilations": {"list": {"i": ["1", "1", "1", "1"]}}, "T": {"type": "DT_FLOAT"}, "strides": {"list": {"i": ["1", "1", "1", "1"]}}, "data_format": {"s": "TkhXQw=="}, "use_cudnn_on_gpu": {"b": true}, "explicit_paddings": {"list": {}}, "num_args": {"i": "1"}, "epsilon": {"f": 0.0}, "padding": {"s": "U0FNRQ=="}, "fused_ops": {"list": {"s": ["Qmlhc0FkZA=="]}}}}, {"name": "StatefulPartitionedCall/audio_model/model/block_4_expand_relu/Relu6", "op": "_FusedConv2D", "input": ["StatefulPartitionedCall/audio_model/model/block_3_project_BN/FusedBatchNormV3", "StatefulPartitionedCall/audio_model/model/block_4_expand/Conv2D_weights", "StatefulPartitionedCall/audio_model/model/block_4_expand/Conv2D_bn_offset"], "device": "/device:CPU:0", "attr": {"dilations": {"list": {"i": ["1", "1", "1", "1"]}}, "T": {"type": "DT_FLOAT"}, "data_format": {"s": "TkhXQw=="}, "strides": {"list": {"i": ["1", "1", "1", "1"]}}, "use_cudnn_on_gpu": {"b": true}, "explicit_paddings": {"list": {}}, "num_args": {"i": "1"}, "epsilon": {"f": 0.0}, "padding": {"s": "U0FNRQ=="}, "fused_ops": {"list": {"s": ["Qmlhc0FkZA==", "UmVsdTY="]}}}}, {"name": "StatefulPartitionedCall/audio_model/model/block_4_depthwise/depthwise", "op": "FusedDepthwiseConv2dNative", "input": ["StatefulPartitionedCall/audio_model/model/block_4_expand_relu/Relu6", "StatefulPartitionedCall/audio_model/model/block_4_depthwise/depthwise_weights", "StatefulPartitionedCall/audio_model/model/block_4_depthwise/depthwise_bn_offset"], "attr": {"dilations": {"list": {"i": ["1", "1", "1", "1"]}}, "T": {"type": "DT_FLOAT"}, "data_format": {"s": "TkhXQw=="}, "strides": {"list": {"i": ["1", "1", "1", "1"]}}, "num_args": {"i": "1"}, "padding": {"s": "U0FNRQ=="}, "fused_ops": {"list": {"s": ["Qmlhc0FkZA==", "UmVsdTY="]}}}}, {"name": "StatefulPartitionedCall/audio_model/model/block_4_project_BN/FusedBatchNormV3", "op": "_FusedConv2D", "input": ["StatefulPartitionedCall/audio_model/model/block_4_depthwise/depthwise", "StatefulPartitionedCall/audio_model/model/block_4_project/Conv2D_weights", "StatefulPartitionedCall/audio_model/model/block_4_project/Conv2D_bn_offset"], "device": "/device:CPU:0", "attr": {"explicit_paddings": {"list": {}}, "use_cudnn_on_gpu": {"b": true}, "num_args": {"i": "1"}, "epsilon": {"f": 0.0}, "padding": {"s": "U0FNRQ=="}, "fused_ops": {"list": {"s": ["Qmlhc0FkZA=="]}}, "dilations": {"list": {"i": ["1", "1", "1", "1"]}}, "T": {"type": "DT_FLOAT"}, "strides": {"list": {"i": ["1", "1", "1", "1"]}}, "data_format": {"s": "TkhXQw=="}}}, {"name": "StatefulPartitionedCall/audio_model/model/block_4_add/add", "op": "AddV2", "input": ["StatefulPartitionedCall/audio_model/model/block_3_project_BN/FusedBatchNormV3", "StatefulPartitionedCall/audio_model/model/block_4_project_BN/FusedBatchNormV3"], "attr": {"T": {"type": "DT_FLOAT"}}}, {"name": "StatefulPartitionedCall/audio_model/model/block_5_expand_relu/Relu6", "op": "_FusedConv2D", "input": ["StatefulPartitionedCall/audio_model/model/block_4_add/add", "StatefulPartitionedCall/audio_model/model/block_5_expand/Conv2D_weights", "StatefulPartitionedCall/audio_model/model/block_5_expand/Conv2D_bn_offset"], "device": "/device:CPU:0", "attr": {"dilations": {"list": {"i": ["1", "1", "1", "1"]}}, "T": {"type": "DT_FLOAT"}, "data_format": {"s": "TkhXQw=="}, "strides": {"list": {"i": ["1", "1", "1", "1"]}}, "use_cudnn_on_gpu": {"b": true}, "explicit_paddings": {"list": {}}, "num_args": {"i": "1"}, "epsilon": {"f": 0.0}, "padding": {"s": "U0FNRQ=="}, "fused_ops": {"list": {"s": ["Qmlhc0FkZA==", "UmVsdTY="]}}}}, {"name": "StatefulPartitionedCall/audio_model/model/block_5_depthwise/depthwise", "op": "FusedDepthwiseConv2dNative", "input": ["StatefulPartitionedCall/audio_model/model/block_5_expand_relu/Relu6", "StatefulPartitionedCall/audio_model/model/block_5_depthwise/depthwise_weights", "StatefulPartitionedCall/audio_model/model/block_5_depthwise/depthwise_bn_offset"], "attr": {"data_format": {"s": "TkhXQw=="}, "strides": {"list": {"i": ["1", "1", "1", "1"]}}, "num_args": {"i": "1"}, "padding": {"s": "U0FNRQ=="}, "fused_ops": {"list": {"s": ["Qmlhc0FkZA==", "UmVsdTY="]}}, "dilations": {"list": {"i": ["1", "1", "1", "1"]}}, "T": {"type": "DT_FLOAT"}}}, {"name": "StatefulPartitionedCall/audio_model/model/block_5_project_BN/FusedBatchNormV3", "op": "_FusedConv2D", "input": ["StatefulPartitionedCall/audio_model/model/block_5_depthwise/depthwise", "StatefulPartitionedCall/audio_model/model/block_5_project/Conv2D_weights", "StatefulPartitionedCall/audio_model/model/block_5_project/Conv2D_bn_offset"], "device": "/device:CPU:0", "attr": {"dilations": {"list": {"i": ["1", "1", "1", "1"]}}, "T": {"type": "DT_FLOAT"}, "strides": {"list": {"i": ["1", "1", "1", "1"]}}, "data_format": {"s": "TkhXQw=="}, "use_cudnn_on_gpu": {"b": true}, "explicit_paddings": {"list": {}}, "num_args": {"i": "1"}, "epsilon": {"f": 0.0}, "padding": {"s": "U0FNRQ=="}, "fused_ops": {"list": {"s": ["Qmlhc0FkZA=="]}}}}, {"name": "StatefulPartitionedCall/audio_model/model/block_5_add/add", "op": "AddV2", "input": ["StatefulPartitionedCall/audio_model/model/block_4_add/add", "StatefulPartitionedCall/audio_model/model/block_5_project_BN/FusedBatchNormV3"], "attr": {"T": {"type": "DT_FLOAT"}}}, {"name": "StatefulPartitionedCall/audio_model/model/block_6_expand_relu/Relu6", "op": "_FusedConv2D", "input": ["StatefulPartitionedCall/audio_model/model/block_5_add/add", "StatefulPartitionedCall/audio_model/model/block_6_expand/Conv2D_weights", "StatefulPartitionedCall/audio_model/model/block_6_expand/Conv2D_bn_offset"], "device": "/device:CPU:0", "attr": {"dilations": {"list": {"i": ["1", "1", "1", "1"]}}, "T": {"type": "DT_FLOAT"}, "strides": {"list": {"i": ["1", "1", "1", "1"]}}, "data_format": {"s": "TkhXQw=="}, "explicit_paddings": {"list": {}}, "use_cudnn_on_gpu": {"b": true}, "num_args": {"i": "1"}, "epsilon": {"f": 0.0}, "padding": {"s": "U0FNRQ=="}, "fused_ops": {"list": {"s": ["Qmlhc0FkZA==", "UmVsdTY="]}}}}, {"name": "StatefulPartitionedCall/audio_model/model/block_6_pad/Pad", "op": "Pad", "input": ["StatefulPartitionedCall/audio_model/model/block_6_expand_relu/Relu6", "StatefulPartitionedCall/audio_model/model/Conv1_pad/Pad/paddings"], "attr": {"T": {"type": "DT_FLOAT"}, "Tpaddings": {"type": "DT_INT32"}}}, {"name": "StatefulPartitionedCall/audio_model/model/block_6_depthwise/depthwise", "op": "FusedDepthwiseConv2dNative", "input": ["StatefulPartitionedCall/audio_model/model/block_6_pad/Pad", "StatefulPartitionedCall/audio_model/model/block_6_depthwise/depthwise_weights", "StatefulPartitionedCall/audio_model/model/block_6_depthwise/depthwise_bn_offset"], "attr": {"dilations": {"list": {"i": ["1", "1", "1", "1"]}}, "T": {"type": "DT_FLOAT"}, "strides": {"list": {"i": ["1", "2", "2", "1"]}}, "data_format": {"s": "TkhXQw=="}, "num_args": {"i": "1"}, "padding": {"s": "VkFMSUQ="}, "fused_ops": {"list": {"s": ["Qmlhc0FkZA==", "UmVsdTY="]}}}}, {"name": "StatefulPartitionedCall/audio_model/model/block_6_project_BN/FusedBatchNormV3", "op": "_FusedConv2D", "input": ["StatefulPartitionedCall/audio_model/model/block_6_depthwise/depthwise", "StatefulPartitionedCall/audio_model/model/block_6_project/Conv2D_weights", "StatefulPartitionedCall/audio_model/model/block_6_project/Conv2D_bn_offset"], "device": "/device:CPU:0", "attr": {"fused_ops": {"list": {"s": ["Qmlhc0FkZA=="]}}, "dilations": {"list": {"i": ["1", "1", "1", "1"]}}, "T": {"type": "DT_FLOAT"}, "strides": {"list": {"i": ["1", "1", "1", "1"]}}, "data_format": {"s": "TkhXQw=="}, "explicit_paddings": {"list": {}}, "use_cudnn_on_gpu": {"b": true}, "num_args": {"i": "1"}, "epsilon": {"f": 0.0}, "padding": {"s": "U0FNRQ=="}}}, {"name": "StatefulPartitionedCall/audio_model/model/block_7_expand_relu/Relu6", "op": "_FusedConv2D", "input": ["StatefulPartitionedCall/audio_model/model/block_6_project_BN/FusedBatchNormV3", "StatefulPartitionedCall/audio_model/model/block_7_expand/Conv2D_weights", "StatefulPartitionedCall/audio_model/model/block_7_expand/Conv2D_bn_offset"], "device": "/device:CPU:0", "attr": {"explicit_paddings": {"list": {}}, "use_cudnn_on_gpu": {"b": true}, "num_args": {"i": "1"}, "epsilon": {"f": 0.0}, "padding": {"s": "U0FNRQ=="}, "fused_ops": {"list": {"s": ["Qmlhc0FkZA==", "UmVsdTY="]}}, "dilations": {"list": {"i": ["1", "1", "1", "1"]}}, "T": {"type": "DT_FLOAT"}, "data_format": {"s": "TkhXQw=="}, "strides": {"list": {"i": ["1", "1", "1", "1"]}}}}, {"name": "StatefulPartitionedCall/audio_model/model/block_7_depthwise/depthwise", "op": "FusedDepthwiseConv2dNative", "input": ["StatefulPartitionedCall/audio_model/model/block_7_expand_relu/Relu6", "StatefulPartitionedCall/audio_model/model/block_7_depthwise/depthwise_weights", "StatefulPartitionedCall/audio_model/model/block_7_depthwise/depthwise_bn_offset"], "attr": {"num_args": {"i": "1"}, "padding": {"s": "U0FNRQ=="}, "fused_ops": {"list": {"s": ["Qmlhc0FkZA==", "UmVsdTY="]}}, "dilations": {"list": {"i": ["1", "1", "1", "1"]}}, "T": {"type": "DT_FLOAT"}, "strides": {"list": {"i": ["1", "1", "1", "1"]}}, "data_format": {"s": "TkhXQw=="}}}, {"name": "StatefulPartitionedCall/audio_model/model/block_7_project_BN/FusedBatchNormV3", "op": "_FusedConv2D", "input": ["StatefulPartitionedCall/audio_model/model/block_7_depthwise/depthwise", "StatefulPartitionedCall/audio_model/model/block_7_project/Conv2D_weights", "StatefulPartitionedCall/audio_model/model/block_7_project/Conv2D_bn_offset"], "device": "/device:CPU:0", "attr": {"data_format": {"s": "TkhXQw=="}, "strides": {"list": {"i": ["1", "1", "1", "1"]}}, "explicit_paddings": {"list": {}}, "use_cudnn_on_gpu": {"b": true}, "num_args": {"i": "1"}, "epsilon": {"f": 0.0}, "padding": {"s": "U0FNRQ=="}, "fused_ops": {"list": {"s": ["Qmlhc0FkZA=="]}}, "dilations": {"list": {"i": ["1", "1", "1", "1"]}}, "T": {"type": "DT_FLOAT"}}}, {"name": "StatefulPartitionedCall/audio_model/model/block_7_add/add", "op": "AddV2", "input": ["StatefulPartitionedCall/audio_model/model/block_6_project_BN/FusedBatchNormV3", "StatefulPartitionedCall/audio_model/model/block_7_project_BN/FusedBatchNormV3"], "attr": {"T": {"type": "DT_FLOAT"}}}, {"name": "StatefulPartitionedCall/audio_model/model/block_8_expand_relu/Relu6", "op": "_FusedConv2D", "input": ["StatefulPartitionedCall/audio_model/model/block_7_add/add", "StatefulPartitionedCall/audio_model/model/block_8_expand/Conv2D_weights", "StatefulPartitionedCall/audio_model/model/block_8_expand/Conv2D_bn_offset"], "device": "/device:CPU:0", "attr": {"use_cudnn_on_gpu": {"b": true}, "explicit_paddings": {"list": {}}, "num_args": {"i": "1"}, "epsilon": {"f": 0.0}, "padding": {"s": "U0FNRQ=="}, "fused_ops": {"list": {"s": ["Qmlhc0FkZA==", "UmVsdTY="]}}, "dilations": {"list": {"i": ["1", "1", "1", "1"]}}, "T": {"type": "DT_FLOAT"}, "data_format": {"s": "TkhXQw=="}, "strides": {"list": {"i": ["1", "1", "1", "1"]}}}}, {"name": "StatefulPartitionedCall/audio_model/model/block_8_depthwise/depthwise", "op": "FusedDepthwiseConv2dNative", "input": ["StatefulPartitionedCall/audio_model/model/block_8_expand_relu/Relu6", "StatefulPartitionedCall/audio_model/model/block_8_depthwise/depthwise_weights", "StatefulPartitionedCall/audio_model/model/block_8_depthwise/depthwise_bn_offset"], "attr": {"num_args": {"i": "1"}, "padding": {"s": "U0FNRQ=="}, "fused_ops": {"list": {"s": ["Qmlhc0FkZA==", "UmVsdTY="]}}, "dilations": {"list": {"i": ["1", "1", "1", "1"]}}, "T": {"type": "DT_FLOAT"}, "data_format": {"s": "TkhXQw=="}, "strides": {"list": {"i": ["1", "1", "1", "1"]}}}}, {"name": "StatefulPartitionedCall/audio_model/model/block_8_project_BN/FusedBatchNormV3", "op": "_FusedConv2D", "input": ["StatefulPartitionedCall/audio_model/model/block_8_depthwise/depthwise", "StatefulPartitionedCall/audio_model/model/block_8_project/Conv2D_weights", "StatefulPartitionedCall/audio_model/model/block_8_project/Conv2D_bn_offset"], "device": "/device:CPU:0", "attr": {"epsilon": {"f": 0.0}, "padding": {"s": "U0FNRQ=="}, "fused_ops": {"list": {"s": ["Qmlhc0FkZA=="]}}, "dilations": {"list": {"i": ["1", "1", "1", "1"]}}, "T": {"type": "DT_FLOAT"}, "data_format": {"s": "TkhXQw=="}, "strides": {"list": {"i": ["1", "1", "1", "1"]}}, "use_cudnn_on_gpu": {"b": true}, "explicit_paddings": {"list": {}}, "num_args": {"i": "1"}}}, {"name": "StatefulPartitionedCall/audio_model/model/block_8_add/add", "op": "AddV2", "input": ["StatefulPartitionedCall/audio_model/model/block_7_add/add", "StatefulPartitionedCall/audio_model/model/block_8_project_BN/FusedBatchNormV3"], "attr": {"T": {"type": "DT_FLOAT"}}}, {"name": "StatefulPartitionedCall/audio_model/model/block_9_expand_relu/Relu6", "op": "_FusedConv2D", "input": ["StatefulPartitionedCall/audio_model/model/block_8_add/add", "StatefulPartitionedCall/audio_model/model/block_9_expand/Conv2D_weights", "StatefulPartitionedCall/audio_model/model/block_9_expand/Conv2D_bn_offset"], "device": "/device:CPU:0", "attr": {"epsilon": {"f": 0.0}, "padding": {"s": "U0FNRQ=="}, "fused_ops": {"list": {"s": ["Qmlhc0FkZA==", "UmVsdTY="]}}, "dilations": {"list": {"i": ["1", "1", "1", "1"]}}, "T": {"type": "DT_FLOAT"}, "data_format": {"s": "TkhXQw=="}, "strides": {"list": {"i": ["1", "1", "1", "1"]}}, "explicit_paddings": {"list": {}}, "use_cudnn_on_gpu": {"b": true}, "num_args": {"i": "1"}}}, {"name": "StatefulPartitionedCall/audio_model/model/block_9_depthwise/depthwise", "op": "FusedDepthwiseConv2dNative", "input": ["StatefulPartitionedCall/audio_model/model/block_9_expand_relu/Relu6", "StatefulPartitionedCall/audio_model/model/block_9_depthwise/depthwise_weights", "StatefulPartitionedCall/audio_model/model/block_9_depthwise/depthwise_bn_offset"], "attr": {"fused_ops": {"list": {"s": ["Qmlhc0FkZA==", "UmVsdTY="]}}, "dilations": {"list": {"i": ["1", "1", "1", "1"]}}, "T": {"type": "DT_FLOAT"}, "strides": {"list": {"i": ["1", "1", "1", "1"]}}, "data_format": {"s": "TkhXQw=="}, "num_args": {"i": "1"}, "padding": {"s": "U0FNRQ=="}}}, {"name": "StatefulPartitionedCall/audio_model/model/block_9_project_BN/FusedBatchNormV3", "op": "_FusedConv2D", "input": ["StatefulPartitionedCall/audio_model/model/block_9_depthwise/depthwise", "StatefulPartitionedCall/audio_model/model/block_9_project/Conv2D_weights", "StatefulPartitionedCall/audio_model/model/block_9_project/Conv2D_bn_offset"], "device": "/device:CPU:0", "attr": {"fused_ops": {"list": {"s": ["Qmlhc0FkZA=="]}}, "dilations": {"list": {"i": ["1", "1", "1", "1"]}}, "T": {"type": "DT_FLOAT"}, "data_format": {"s": "TkhXQw=="}, "strides": {"list": {"i": ["1", "1", "1", "1"]}}, "explicit_paddings": {"list": {}}, "use_cudnn_on_gpu": {"b": true}, "num_args": {"i": "1"}, "epsilon": {"f": 0.0}, "padding": {"s": "U0FNRQ=="}}}, {"name": "StatefulPartitionedCall/audio_model/model/block_9_add/add", "op": "AddV2", "input": ["StatefulPartitionedCall/audio_model/model/block_8_add/add", "StatefulPartitionedCall/audio_model/model/block_9_project_BN/FusedBatchNormV3"], "attr": {"T": {"type": "DT_FLOAT"}}}, {"name": "StatefulPartitionedCall/audio_model/model/block_10_expand_relu/Relu6", "op": "_FusedConv2D", "input": ["StatefulPartitionedCall/audio_model/model/block_9_add/add", "StatefulPartitionedCall/audio_model/model/block_10_expand/Conv2D_weights", "StatefulPartitionedCall/audio_model/model/block_10_expand/Conv2D_bn_offset"], "device": "/device:CPU:0", "attr": {"strides": {"list": {"i": ["1", "1", "1", "1"]}}, "data_format": {"s": "TkhXQw=="}, "use_cudnn_on_gpu": {"b": true}, "explicit_paddings": {"list": {}}, "num_args": {"i": "1"}, "epsilon": {"f": 0.0}, "padding": {"s": "U0FNRQ=="}, "fused_ops": {"list": {"s": ["Qmlhc0FkZA==", "UmVsdTY="]}}, "dilations": {"list": {"i": ["1", "1", "1", "1"]}}, "T": {"type": "DT_FLOAT"}}}, {"name": "StatefulPartitionedCall/audio_model/model/block_10_depthwise/depthwise", "op": "FusedDepthwiseConv2dNative", "input": ["StatefulPartitionedCall/audio_model/model/block_10_expand_relu/Relu6", "StatefulPartitionedCall/audio_model/model/block_10_depthwise/depthwise_weights", "StatefulPartitionedCall/audio_model/model/block_10_depthwise/depthwise_bn_offset"], "attr": {"dilations": {"list": {"i": ["1", "1", "1", "1"]}}, "T": {"type": "DT_FLOAT"}, "strides": {"list": {"i": ["1", "1", "1", "1"]}}, "data_format": {"s": "TkhXQw=="}, "num_args": {"i": "1"}, "padding": {"s": "U0FNRQ=="}, "fused_ops": {"list": {"s": ["Qmlhc0FkZA==", "UmVsdTY="]}}}}, {"name": "StatefulPartitionedCall/audio_model/model/block_10_project_BN/FusedBatchNormV3", "op": "_FusedConv2D", "input": ["StatefulPartitionedCall/audio_model/model/block_10_depthwise/depthwise", "StatefulPartitionedCall/audio_model/model/block_10_project/Conv2D_weights", "StatefulPartitionedCall/audio_model/model/block_10_project/Conv2D_bn_offset"], "device": "/device:CPU:0", "attr": {"dilations": {"list": {"i": ["1", "1", "1", "1"]}}, "T": {"type": "DT_FLOAT"}, "strides": {"list": {"i": ["1", "1", "1", "1"]}}, "data_format": {"s": "TkhXQw=="}, "explicit_paddings": {"list": {}}, "use_cudnn_on_gpu": {"b": true}, "num_args": {"i": "1"}, "epsilon": {"f": 0.0}, "padding": {"s": "U0FNRQ=="}, "fused_ops": {"list": {"s": ["Qmlhc0FkZA=="]}}}}, {"name": "StatefulPartitionedCall/audio_model/model/block_11_expand_relu/Relu6", "op": "_FusedConv2D", "input": ["StatefulPartitionedCall/audio_model/model/block_10_project_BN/FusedBatchNormV3", "StatefulPartitionedCall/audio_model/model/block_11_expand/Conv2D_weights", "StatefulPartitionedCall/audio_model/model/block_11_expand/Conv2D_bn_offset"], "device": "/device:CPU:0", "attr": {"num_args": {"i": "1"}, "epsilon": {"f": 0.0}, "padding": {"s": "U0FNRQ=="}, "fused_ops": {"list": {"s": ["Qmlhc0FkZA==", "UmVsdTY="]}}, "dilations": {"list": {"i": ["1", "1", "1", "1"]}}, "T": {"type": "DT_FLOAT"}, "data_format": {"s": "TkhXQw=="}, "strides": {"list": {"i": ["1", "1", "1", "1"]}}, "explicit_paddings": {"list": {}}, "use_cudnn_on_gpu": {"b": true}}}, {"name": "StatefulPartitionedCall/audio_model/model/block_11_depthwise/depthwise", "op": "FusedDepthwiseConv2dNative", "input": ["StatefulPartitionedCall/audio_model/model/block_11_expand_relu/Relu6", "StatefulPartitionedCall/audio_model/model/block_11_depthwise/depthwise_weights", "StatefulPartitionedCall/audio_model/model/block_11_depthwise/depthwise_bn_offset"], "attr": {"data_format": {"s": "TkhXQw=="}, "strides": {"list": {"i": ["1", "1", "1", "1"]}}, "num_args": {"i": "1"}, "padding": {"s": "U0FNRQ=="}, "fused_ops": {"list": {"s": ["Qmlhc0FkZA==", "UmVsdTY="]}}, "dilations": {"list": {"i": ["1", "1", "1", "1"]}}, "T": {"type": "DT_FLOAT"}}}, {"name": "StatefulPartitionedCall/audio_model/model/block_11_project_BN/FusedBatchNormV3", "op": "_FusedConv2D", "input": ["StatefulPartitionedCall/audio_model/model/block_11_depthwise/depthwise", "StatefulPartitionedCall/audio_model/model/block_11_project/Conv2D_weights", "StatefulPartitionedCall/audio_model/model/block_11_project/Conv2D_bn_offset"], "device": "/device:CPU:0", "attr": {"dilations": {"list": {"i": ["1", "1", "1", "1"]}}, "T": {"type": "DT_FLOAT"}, "data_format": {"s": "TkhXQw=="}, "strides": {"list": {"i": ["1", "1", "1", "1"]}}, "use_cudnn_on_gpu": {"b": true}, "explicit_paddings": {"list": {}}, "num_args": {"i": "1"}, "epsilon": {"f": 0.0}, "padding": {"s": "U0FNRQ=="}, "fused_ops": {"list": {"s": ["Qmlhc0FkZA=="]}}}}, {"name": "StatefulPartitionedCall/audio_model/model/block_11_add/add", "op": "AddV2", "input": ["StatefulPartitionedCall/audio_model/model/block_10_project_BN/FusedBatchNormV3", "StatefulPartitionedCall/audio_model/model/block_11_project_BN/FusedBatchNormV3"], "attr": {"T": {"type": "DT_FLOAT"}}}, {"name": "StatefulPartitionedCall/audio_model/model/block_12_expand_relu/Relu6", "op": "_FusedConv2D", "input": ["StatefulPartitionedCall/audio_model/model/block_11_add/add", "StatefulPartitionedCall/audio_model/model/block_12_expand/Conv2D_weights", "StatefulPartitionedCall/audio_model/model/block_12_expand/Conv2D_bn_offset"], "device": "/device:CPU:0", "attr": {"epsilon": {"f": 0.0}, "padding": {"s": "U0FNRQ=="}, "fused_ops": {"list": {"s": ["Qmlhc0FkZA==", "UmVsdTY="]}}, "dilations": {"list": {"i": ["1", "1", "1", "1"]}}, "T": {"type": "DT_FLOAT"}, "data_format": {"s": "TkhXQw=="}, "strides": {"list": {"i": ["1", "1", "1", "1"]}}, "explicit_paddings": {"list": {}}, "use_cudnn_on_gpu": {"b": true}, "num_args": {"i": "1"}}}, {"name": "StatefulPartitionedCall/audio_model/model/block_12_depthwise/depthwise", "op": "FusedDepthwiseConv2dNative", "input": ["StatefulPartitionedCall/audio_model/model/block_12_expand_relu/Relu6", "StatefulPartitionedCall/audio_model/model/block_12_depthwise/depthwise_weights", "StatefulPartitionedCall/audio_model/model/block_12_depthwise/depthwise_bn_offset"], "attr": {"strides": {"list": {"i": ["1", "1", "1", "1"]}}, "data_format": {"s": "TkhXQw=="}, "num_args": {"i": "1"}, "padding": {"s": "U0FNRQ=="}, "fused_ops": {"list": {"s": ["Qmlhc0FkZA==", "UmVsdTY="]}}, "dilations": {"list": {"i": ["1", "1", "1", "1"]}}, "T": {"type": "DT_FLOAT"}}}, {"name": "StatefulPartitionedCall/audio_model/model/block_12_project_BN/FusedBatchNormV3", "op": "_FusedConv2D", "input": ["StatefulPartitionedCall/audio_model/model/block_12_depthwise/depthwise", "StatefulPartitionedCall/audio_model/model/block_12_project/Conv2D_weights", "StatefulPartitionedCall/audio_model/model/block_12_project/Conv2D_bn_offset"], "device": "/device:CPU:0", "attr": {"padding": {"s": "U0FNRQ=="}, "fused_ops": {"list": {"s": ["Qmlhc0FkZA=="]}}, "dilations": {"list": {"i": ["1", "1", "1", "1"]}}, "T": {"type": "DT_FLOAT"}, "data_format": {"s": "TkhXQw=="}, "strides": {"list": {"i": ["1", "1", "1", "1"]}}, "explicit_paddings": {"list": {}}, "use_cudnn_on_gpu": {"b": true}, "num_args": {"i": "1"}, "epsilon": {"f": 0.0}}}, {"name": "StatefulPartitionedCall/audio_model/model/block_12_add/add", "op": "AddV2", "input": ["StatefulPartitionedCall/audio_model/model/block_11_add/add", "StatefulPartitionedCall/audio_model/model/block_12_project_BN/FusedBatchNormV3"], "attr": {"T": {"type": "DT_FLOAT"}}}, {"name": "StatefulPartitionedCall/audio_model/model/block_13_expand_relu/Relu6", "op": "_FusedConv2D", "input": ["StatefulPartitionedCall/audio_model/model/block_12_add/add", "StatefulPartitionedCall/audio_model/model/block_13_expand/Conv2D_weights", "StatefulPartitionedCall/audio_model/model/block_13_expand/Conv2D_bn_offset"], "device": "/device:CPU:0", "attr": {"dilations": {"list": {"i": ["1", "1", "1", "1"]}}, "T": {"type": "DT_FLOAT"}, "strides": {"list": {"i": ["1", "1", "1", "1"]}}, "data_format": {"s": "TkhXQw=="}, "use_cudnn_on_gpu": {"b": true}, "explicit_paddings": {"list": {}}, "num_args": {"i": "1"}, "epsilon": {"f": 0.0}, "padding": {"s": "U0FNRQ=="}, "fused_ops": {"list": {"s": ["Qmlhc0FkZA==", "UmVsdTY="]}}}}, {"name": "StatefulPartitionedCall/audio_model/model/block_13_pad/Pad", "op": "Pad", "input": ["StatefulPartitionedCall/audio_model/model/block_13_expand_relu/Relu6", "StatefulPartitionedCall/audio_model/model/Conv1_pad/Pad/paddings"], "attr": {"Tpaddings": {"type": "DT_INT32"}, "T": {"type": "DT_FLOAT"}}}, {"name": "StatefulPartitionedCall/audio_model/model/block_13_depthwise/depthwise", "op": "FusedDepthwiseConv2dNative", "input": ["StatefulPartitionedCall/audio_model/model/block_13_pad/Pad", "StatefulPartitionedCall/audio_model/model/block_13_depthwise/depthwise_weights", "StatefulPartitionedCall/audio_model/model/block_13_depthwise/depthwise_bn_offset"], "attr": {"dilations": {"list": {"i": ["1", "1", "1", "1"]}}, "T": {"type": "DT_FLOAT"}, "data_format": {"s": "TkhXQw=="}, "strides": {"list": {"i": ["1", "2", "2", "1"]}}, "num_args": {"i": "1"}, "padding": {"s": "VkFMSUQ="}, "fused_ops": {"list": {"s": ["Qmlhc0FkZA==", "UmVsdTY="]}}}}, {"name": "StatefulPartitionedCall/audio_model/model/block_13_project_BN/FusedBatchNormV3", "op": "_FusedConv2D", "input": ["StatefulPartitionedCall/audio_model/model/block_13_depthwise/depthwise", "StatefulPartitionedCall/audio_model/model/block_13_project/Conv2D_weights", "StatefulPartitionedCall/audio_model/model/block_13_project/Conv2D_bn_offset"], "device": "/device:CPU:0", "attr": {"fused_ops": {"list": {"s": ["Qmlhc0FkZA=="]}}, "dilations": {"list": {"i": ["1", "1", "1", "1"]}}, "T": {"type": "DT_FLOAT"}, "strides": {"list": {"i": ["1", "1", "1", "1"]}}, "data_format": {"s": "TkhXQw=="}, "explicit_paddings": {"list": {}}, "use_cudnn_on_gpu": {"b": true}, "num_args": {"i": "1"}, "epsilon": {"f": 0.0}, "padding": {"s": "U0FNRQ=="}}}, {"name": "StatefulPartitionedCall/audio_model/model/block_14_expand_relu/Relu6", "op": "_FusedConv2D", "input": ["StatefulPartitionedCall/audio_model/model/block_13_project_BN/FusedBatchNormV3", "StatefulPartitionedCall/audio_model/model/block_14_expand/Conv2D_weights", "StatefulPartitionedCall/audio_model/model/block_14_expand/Conv2D_bn_offset"], "device": "/device:CPU:0", "attr": {"dilations": {"list": {"i": ["1", "1", "1", "1"]}}, "T": {"type": "DT_FLOAT"}, "strides": {"list": {"i": ["1", "1", "1", "1"]}}, "data_format": {"s": "TkhXQw=="}, "explicit_paddings": {"list": {}}, "use_cudnn_on_gpu": {"b": true}, "num_args": {"i": "1"}, "epsilon": {"f": 0.0}, "padding": {"s": "U0FNRQ=="}, "fused_ops": {"list": {"s": ["Qmlhc0FkZA==", "UmVsdTY="]}}}}, {"name": "StatefulPartitionedCall/audio_model/model/block_14_depthwise/depthwise", "op": "FusedDepthwiseConv2dNative", "input": ["StatefulPartitionedCall/audio_model/model/block_14_expand_relu/Relu6", "StatefulPartitionedCall/audio_model/model/block_14_depthwise/depthwise_weights", "StatefulPartitionedCall/audio_model/model/block_14_depthwise/depthwise_bn_offset"], "attr": {"data_format": {"s": "TkhXQw=="}, "strides": {"list": {"i": ["1", "1", "1", "1"]}}, "num_args": {"i": "1"}, "padding": {"s": "U0FNRQ=="}, "fused_ops": {"list": {"s": ["Qmlhc0FkZA==", "UmVsdTY="]}}, "dilations": {"list": {"i": ["1", "1", "1", "1"]}}, "T": {"type": "DT_FLOAT"}}}, {"name": "StatefulPartitionedCall/audio_model/model/block_14_project_BN/FusedBatchNormV3", "op": "_FusedConv2D", "input": ["StatefulPartitionedCall/audio_model/model/block_14_depthwise/depthwise", "StatefulPartitionedCall/audio_model/model/block_14_project/Conv2D_weights", "StatefulPartitionedCall/audio_model/model/block_14_project/Conv2D_bn_offset"], "device": "/device:CPU:0", "attr": {"dilations": {"list": {"i": ["1", "1", "1", "1"]}}, "T": {"type": "DT_FLOAT"}, "strides": {"list": {"i": ["1", "1", "1", "1"]}}, "data_format": {"s": "TkhXQw=="}, "explicit_paddings": {"list": {}}, "use_cudnn_on_gpu": {"b": true}, "num_args": {"i": "1"}, "epsilon": {"f": 0.0}, "padding": {"s": "U0FNRQ=="}, "fused_ops": {"list": {"s": ["Qmlhc0FkZA=="]}}}}, {"name": "StatefulPartitionedCall/audio_model/model/block_14_add/add", "op": "AddV2", "input": ["StatefulPartitionedCall/audio_model/model/block_13_project_BN/FusedBatchNormV3", "StatefulPartitionedCall/audio_model/model/block_14_project_BN/FusedBatchNormV3"], "attr": {"T": {"type": "DT_FLOAT"}}}, {"name": "StatefulPartitionedCall/audio_model/model/block_15_expand_relu/Relu6", "op": "_FusedConv2D", "input": ["StatefulPartitionedCall/audio_model/model/block_14_add/add", "StatefulPartitionedCall/audio_model/model/block_15_expand/Conv2D_weights", "StatefulPartitionedCall/audio_model/model/block_15_expand/Conv2D_bn_offset"], "device": "/device:CPU:0", "attr": {"dilations": {"list": {"i": ["1", "1", "1", "1"]}}, "T": {"type": "DT_FLOAT"}, "data_format": {"s": "TkhXQw=="}, "strides": {"list": {"i": ["1", "1", "1", "1"]}}, "explicit_paddings": {"list": {}}, "use_cudnn_on_gpu": {"b": true}, "num_args": {"i": "1"}, "epsilon": {"f": 0.0}, "padding": {"s": "U0FNRQ=="}, "fused_ops": {"list": {"s": ["Qmlhc0FkZA==", "UmVsdTY="]}}}}, {"name": "StatefulPartitionedCall/audio_model/model/block_15_depthwise/depthwise", "op": "FusedDepthwiseConv2dNative", "input": ["StatefulPartitionedCall/audio_model/model/block_15_expand_relu/Relu6", "StatefulPartitionedCall/audio_model/model/block_15_depthwise/depthwise_weights", "StatefulPartitionedCall/audio_model/model/block_15_depthwise/depthwise_bn_offset"], "attr": {"num_args": {"i": "1"}, "padding": {"s": "U0FNRQ=="}, "fused_ops": {"list": {"s": ["Qmlhc0FkZA==", "UmVsdTY="]}}, "dilations": {"list": {"i": ["1", "1", "1", "1"]}}, "T": {"type": "DT_FLOAT"}, "strides": {"list": {"i": ["1", "1", "1", "1"]}}, "data_format": {"s": "TkhXQw=="}}}, {"name": "StatefulPartitionedCall/audio_model/model/block_15_project_BN/FusedBatchNormV3", "op": "_FusedConv2D", "input": ["StatefulPartitionedCall/audio_model/model/block_15_depthwise/depthwise", "StatefulPartitionedCall/audio_model/model/block_15_project/Conv2D_weights", "StatefulPartitionedCall/audio_model/model/block_15_project/Conv2D_bn_offset"], "device": "/device:CPU:0", "attr": {"epsilon": {"f": 0.0}, "padding": {"s": "U0FNRQ=="}, "fused_ops": {"list": {"s": ["Qmlhc0FkZA=="]}}, "dilations": {"list": {"i": ["1", "1", "1", "1"]}}, "T": {"type": "DT_FLOAT"}, "data_format": {"s": "TkhXQw=="}, "strides": {"list": {"i": ["1", "1", "1", "1"]}}, "use_cudnn_on_gpu": {"b": true}, "explicit_paddings": {"list": {}}, "num_args": {"i": "1"}}}, {"name": "StatefulPartitionedCall/audio_model/model/block_15_add/add", "op": "AddV2", "input": ["StatefulPartitionedCall/audio_model/model/block_14_add/add", "StatefulPartitionedCall/audio_model/model/block_15_project_BN/FusedBatchNormV3"], "attr": {"T": {"type": "DT_FLOAT"}}}, {"name": "StatefulPartitionedCall/audio_model/model/block_16_expand_relu/Relu6", "op": "_FusedConv2D", "input": ["StatefulPartitionedCall/audio_model/model/block_15_add/add", "StatefulPartitionedCall/audio_model/model/block_16_expand/Conv2D_weights", "StatefulPartitionedCall/audio_model/model/block_16_expand/Conv2D_bn_offset"], "device": "/device:CPU:0", "attr": {"padding": {"s": "U0FNRQ=="}, "fused_ops": {"list": {"s": ["Qmlhc0FkZA==", "UmVsdTY="]}}, "dilations": {"list": {"i": ["1", "1", "1", "1"]}}, "T": {"type": "DT_FLOAT"}, "strides": {"list": {"i": ["1", "1", "1", "1"]}}, "data_format": {"s": "TkhXQw=="}, "use_cudnn_on_gpu": {"b": true}, "explicit_paddings": {"list": {}}, "num_args": {"i": "1"}, "epsilon": {"f": 0.0}}}, {"name": "StatefulPartitionedCall/audio_model/model/block_16_depthwise/depthwise", "op": "FusedDepthwiseConv2dNative", "input": ["StatefulPartitionedCall/audio_model/model/block_16_expand_relu/Relu6", "StatefulPartitionedCall/audio_model/model/block_16_depthwise/depthwise_weights", "StatefulPartitionedCall/audio_model/model/block_16_depthwise/depthwise_bn_offset"], "attr": {"T": {"type": "DT_FLOAT"}, "strides": {"list": {"i": ["1", "1", "1", "1"]}}, "data_format": {"s": "TkhXQw=="}, "num_args": {"i": "1"}, "padding": {"s": "U0FNRQ=="}, "fused_ops": {"list": {"s": ["Qmlhc0FkZA==", "UmVsdTY="]}}, "dilations": {"list": {"i": ["1", "1", "1", "1"]}}}}, {"name": "StatefulPartitionedCall/audio_model/model/block_16_project_BN/FusedBatchNormV3", "op": "_FusedConv2D", "input": ["StatefulPartitionedCall/audio_model/model/block_16_depthwise/depthwise", "StatefulPartitionedCall/audio_model/model/block_16_project/Conv2D_weights", "StatefulPartitionedCall/audio_model/model/block_16_project/Conv2D_bn_offset"], "device": "/device:CPU:0", "attr": {"num_args": {"i": "1"}, "epsilon": {"f": 0.0}, "padding": {"s": "U0FNRQ=="}, "fused_ops": {"list": {"s": ["Qmlhc0FkZA=="]}}, "dilations": {"list": {"i": ["1", "1", "1", "1"]}}, "T": {"type": "DT_FLOAT"}, "strides": {"list": {"i": ["1", "1", "1", "1"]}}, "data_format": {"s": "TkhXQw=="}, "explicit_paddings": {"list": {}}, "use_cudnn_on_gpu": {"b": true}}}, {"name": "StatefulPartitionedCall/audio_model/model/out_relu/Relu6", "op": "_FusedConv2D", "input": ["StatefulPartitionedCall/audio_model/model/block_16_project_BN/FusedBatchNormV3", "StatefulPartitionedCall/audio_model/model/Conv_1/Conv2D_weights", "StatefulPartitionedCall/audio_model/model/Conv_1/Conv2D_bn_offset"], "device": "/device:CPU:0", "attr": {"num_args": {"i": "1"}, "epsilon": {"f": 0.0}, "padding": {"s": "VkFMSUQ="}, "fused_ops": {"list": {"s": ["Qmlhc0FkZA==", "UmVsdTY="]}}, "dilations": {"list": {"i": ["1", "1", "1", "1"]}}, "T": {"type": "DT_FLOAT"}, "strides": {"list": {"i": ["1", "1", "1", "1"]}}, "data_format": {"s": "TkhXQw=="}, "explicit_paddings": {"list": {}}, "use_cudnn_on_gpu": {"b": true}}}, {"name": "StatefulPartitionedCall/audio_model/model/global_average_pooling2d/Mean", "op": "Mean", "input": ["StatefulPartitionedCall/audio_model/model/out_relu/Relu6", "StatefulPartitionedCall/audio_model/model/global_average_pooling2d/Mean/reduction_indices"], "attr": {"Tidx": {"type": "DT_INT32"}, "keep_dims": {"b": false}, "T": {"type": "DT_FLOAT"}}}, {"name": "StatefulPartitionedCall/audio_model/model/projection_dense_1/BiasAdd", "op": "_FusedMatMul", "input": ["StatefulPartitionedCall/audio_model/model/global_average_pooling2d/Mean", "Func/StatefulPartitionedCall/input/_262", "Func/StatefulPartitionedCall/input/_263"], "device": "/device:CPU:0", "attr": {"num_args": {"i": "1"}, "epsilon": {"f": 0.0}, "fused_ops": {"list": {"s": ["Qmlhc0FkZA=="]}}, "transpose_a": {"b": false}, "transpose_b": {"b": false}, "T": {"type": "DT_FLOAT"}}}, {"name": "StatefulPartitionedCall/audio_model/model/predictions/Softmax", "op": "Softmax", "input": ["StatefulPartitionedCall/audio_model/model/projection_dense_1/BiasAdd"], "attr": {"T": {"type": "DT_FLOAT"}}}, {"name": "Identity", "op": "Identity", "input": ["StatefulPartitionedCall/audio_model/model/predictions/Softmax"], "attr": {"T": {"type": "DT_FLOAT"}}}], "library": {}, "versions": {"producer": 175}}, "weightsManifest": [{"paths": ["group1-shard1of3.bin", "group1-shard2of3.bin", "group1-shard3of3.bin"], "weights": [{"name": "StatefulPartitionedCall/audio_model/model/Conv1/Conv2D_weights", "shape": [3, 3, 3, 32], "dtype": "float32"}, {"name": "StatefulPartitionedCall/audio_model/model/block_14_expand/Conv2D_weights", "shape": [1, 1, 160, 960], "dtype": "float32"}, {"name": "StatefulPartitionedCall/audio_model/model/Conv1/Conv2D_bn_offset", "shape": [32], "dtype": "float32"}, {"name": "StatefulPartitionedCall/audio_model/model/block_16_project/Conv2D_bn_offset", "shape": [320], "dtype": "float32"}, {"name": "StatefulPartitionedCall/audio_model/model/expanded_conv_depthwise/depthwise_weights", "shape": [3, 3, 32, 1], "dtype": "float32"}, {"name": "StatefulPartitionedCall/audio_model/model/expanded_conv_depthwise/depthwise_bn_offset", "shape": [32], "dtype": "float32"}, {"name": "StatefulPartitionedCall/audio_model/model/expanded_conv_project/Conv2D_weights", "shape": [1, 1, 32, 16], "dtype": "float32"}, {"name": "StatefulPartitionedCall/audio_model/model/block_14_expand/Conv2D_bn_offset", "shape": [960], "dtype": "float32"}, {"name": "StatefulPartitionedCall/audio_model/model/expanded_conv_project/Conv2D_bn_offset", "shape": [16], "dtype": "float32"}, {"name": "StatefulPartitionedCall/audio_model/model/block_1_expand/Conv2D_weights", "shape": [1, 1, 16, 96], "dtype": "float32"}, {"name": "StatefulPartitionedCall/audio_model/model/block_1_expand/Conv2D_bn_offset", "shape": [96], "dtype": "float32"}, {"name": "StatefulPartitionedCall/audio_model/model/block_1_depthwise/depthwise_weights", "shape": [3, 3, 96, 1], "dtype": "float32"}, {"name": "StatefulPartitionedCall/audio_model/model/block_1_depthwise/depthwise_bn_offset", "shape": [96], "dtype": "float32"}, {"name": "StatefulPartitionedCall/audio_model/model/block_1_project/Conv2D_weights", "shape": [1, 1, 96, 24], "dtype": "float32"}, {"name": "StatefulPartitionedCall/audio_model/model/block_14_depthwise/depthwise_weights", "shape": [3, 3, 960, 1], "dtype": "float32"}, {"name": "StatefulPartitionedCall/audio_model/model/block_1_project/Conv2D_bn_offset", "shape": [24], "dtype": "float32"}, {"name": "StatefulPartitionedCall/audio_model/model/block_2_expand/Conv2D_weights", "shape": [1, 1, 24, 144], "dtype": "float32"}, {"name": "StatefulPartitionedCall/audio_model/model/block_2_expand/Conv2D_bn_offset", "shape": [144], "dtype": "float32"}, {"name": "StatefulPartitionedCall/audio_model/model/block_14_depthwise/depthwise_bn_offset", "shape": [960], "dtype": "float32"}, {"name": "StatefulPartitionedCall/audio_model/model/block_2_depthwise/depthwise_weights", "shape": [3, 3, 144, 1], "dtype": "float32"}, {"name": "StatefulPartitionedCall/audio_model/model/block_2_depthwise/depthwise_bn_offset", "shape": [144], "dtype": "float32"}, {"name": "StatefulPartitionedCall/audio_model/model/block_2_project/Conv2D_weights", "shape": [1, 1, 144, 24], "dtype": "float32"}, {"name": "StatefulPartitionedCall/audio_model/model/block_2_project/Conv2D_bn_offset", "shape": [24], "dtype": "float32"}, {"name": "StatefulPartitionedCall/audio_model/model/block_3_expand/Conv2D_weights", "shape": [1, 1, 24, 144], "dtype": "float32"}, {"name": "StatefulPartitionedCall/audio_model/model/block_3_expand/Conv2D_bn_offset", "shape": [144], "dtype": "float32"}, {"name": "StatefulPartitionedCall/audio_model/model/block_14_project/Conv2D_weights", "shape": [1, 1, 960, 160], "dtype": "float32"}, {"name": "StatefulPartitionedCall/audio_model/model/block_3_depthwise/depthwise_weights", "shape": [3, 3, 144, 1], "dtype": "float32"}, {"name": "StatefulPartitionedCall/audio_model/model/block_3_depthwise/depthwise_bn_offset", "shape": [144], "dtype": "float32"}, {"name": "StatefulPartitionedCall/audio_model/model/block_3_project/Conv2D_weights", "shape": [1, 1, 144, 32], "dtype": "float32"}, {"name": "StatefulPartitionedCall/audio_model/model/Conv_1/Conv2D_weights", "shape": [1, 1, 320, 1280], "dtype": "float32"}, {"name": "StatefulPartitionedCall/audio_model/model/block_3_project/Conv2D_bn_offset", "shape": [32], "dtype": "float32"}, {"name": "StatefulPartitionedCall/audio_model/model/block_4_expand/Conv2D_weights", "shape": [1, 1, 32, 192], "dtype": "float32"}, {"name": "StatefulPartitionedCall/audio_model/model/block_14_project/Conv2D_bn_offset", "shape": [160], "dtype": "float32"}, {"name": "StatefulPartitionedCall/audio_model/model/block_4_expand/Conv2D_bn_offset", "shape": [192], "dtype": "float32"}, {"name": "StatefulPartitionedCall/audio_model/model/block_4_depthwise/depthwise_weights", "shape": [3, 3, 192, 1], "dtype": "float32"}, {"name": "StatefulPartitionedCall/audio_model/model/block_4_depthwise/depthwise_bn_offset", "shape": [192], "dtype": "float32"}, {"name": "StatefulPartitionedCall/audio_model/model/block_4_project/Conv2D_weights", "shape": [1, 1, 192, 32], "dtype": "float32"}, {"name": "StatefulPartitionedCall/audio_model/model/block_4_project/Conv2D_bn_offset", "shape": [32], "dtype": "float32"}, {"name": "StatefulPartitionedCall/audio_model/model/block_5_expand/Conv2D_weights", "shape": [1, 1, 32, 192], "dtype": "float32"}, {"name": "StatefulPartitionedCall/audio_model/model/block_15_expand/Conv2D_weights", "shape": [1, 1, 160, 960], "dtype": "float32"}, {"name": "StatefulPartitionedCall/audio_model/model/block_5_expand/Conv2D_bn_offset", "shape": [192], "dtype": "float32"}, {"name": "StatefulPartitionedCall/audio_model/model/block_5_depthwise/depthwise_weights", "shape": [3, 3, 192, 1], "dtype": "float32"}, {"name": "StatefulPartitionedCall/audio_model/model/block_5_depthwise/depthwise_bn_offset", "shape": [192], "dtype": "float32"}, {"name": "StatefulPartitionedCall/audio_model/model/block_5_project/Conv2D_weights", "shape": [1, 1, 192, 32], "dtype": "float32"}, {"name": "StatefulPartitionedCall/audio_model/model/block_15_expand/Conv2D_bn_offset", "shape": [960], "dtype": "float32"}, {"name": "StatefulPartitionedCall/audio_model/model/block_5_project/Conv2D_bn_offset", "shape": [32], "dtype": "float32"}, {"name": "StatefulPartitionedCall/audio_model/model/block_6_expand/Conv2D_weights", "shape": [1, 1, 32, 192], "dtype": "float32"}, {"name": "StatefulPartitionedCall/audio_model/model/Conv_1/Conv2D_bn_offset", "shape": [1280], "dtype": "float32"}, {"name": "StatefulPartitionedCall/audio_model/model/block_6_expand/Conv2D_bn_offset", "shape": [192], "dtype": "float32"}, {"name": "StatefulPartitionedCall/audio_model/model/block_6_depthwise/depthwise_weights", "shape": [3, 3, 192, 1], "dtype": "float32"}, {"name": "StatefulPartitionedCall/audio_model/model/block_6_depthwise/depthwise_bn_offset", "shape": [192], "dtype": "float32"}, {"name": "StatefulPartitionedCall/audio_model/model/block_6_project/Conv2D_weights", "shape": [1, 1, 192, 64], "dtype": "float32"}, {"name": "StatefulPartitionedCall/audio_model/model/block_15_depthwise/depthwise_weights", "shape": [3, 3, 960, 1], "dtype": "float32"}, {"name": "StatefulPartitionedCall/audio_model/model/block_6_project/Conv2D_bn_offset", "shape": [64], "dtype": "float32"}, {"name": "StatefulPartitionedCall/audio_model/model/block_7_expand/Conv2D_weights", "shape": [1, 1, 64, 384], "dtype": "float32"}, {"name": "StatefulPartitionedCall/audio_model/model/block_7_expand/Conv2D_bn_offset", "shape": [384], "dtype": "float32"}, {"name": "StatefulPartitionedCall/audio_model/model/block_15_depthwise/depthwise_bn_offset", "shape": [960], "dtype": "float32"}, {"name": "StatefulPartitionedCall/audio_model/model/block_7_depthwise/depthwise_weights", "shape": [3, 3, 384, 1], "dtype": "float32"}, {"name": "StatefulPartitionedCall/audio_model/model/block_7_depthwise/depthwise_bn_offset", "shape": [384], "dtype": "float32"}, {"name": "StatefulPartitionedCall/audio_model/model/block_7_project/Conv2D_weights", "shape": [1, 1, 384, 64], "dtype": "float32"}, {"name": "StatefulPartitionedCall/audio_model/model/block_7_project/Conv2D_bn_offset", "shape": [64], "dtype": "float32"}, {"name": "StatefulPartitionedCall/audio_model/model/block_8_expand/Conv2D_weights", "shape": [1, 1, 64, 384], "dtype": "float32"}, {"name": "StatefulPartitionedCall/audio_model/model/block_8_expand/Conv2D_bn_offset", "shape": [384], "dtype": "float32"}, {"name": "StatefulPartitionedCall/audio_model/model/block_15_project/Conv2D_weights", "shape": [1, 1, 960, 160], "dtype": "float32"}, {"name": "StatefulPartitionedCall/audio_model/model/block_8_depthwise/depthwise_weights", "shape": [3, 3, 384, 1], "dtype": "float32"}, {"name": "StatefulPartitionedCall/audio_model/model/block_8_depthwise/depthwise_bn_offset", "shape": [384], "dtype": "float32"}, {"name": "StatefulPartitionedCall/audio_model/model/block_8_project/Conv2D_weights", "shape": [1, 1, 384, 64], "dtype": "float32"}, {"name": "StatefulPartitionedCall/audio_model/model/block_8_project/Conv2D_bn_offset", "shape": [64], "dtype": "float32"}, {"name": "StatefulPartitionedCall/audio_model/model/block_9_expand/Conv2D_weights", "shape": [1, 1, 64, 384], "dtype": "float32"}, {"name": "StatefulPartitionedCall/audio_model/model/block_15_project/Conv2D_bn_offset", "shape": [160], "dtype": "float32"}, {"name": "StatefulPartitionedCall/audio_model/model/block_9_expand/Conv2D_bn_offset", "shape": [384], "dtype": "float32"}, {"name": "StatefulPartitionedCall/audio_model/model/block_9_depthwise/depthwise_weights", "shape": [3, 3, 384, 1], "dtype": "float32"}, {"name": "StatefulPartitionedCall/audio_model/model/block_9_depthwise/depthwise_bn_offset", "shape": [384], "dtype": "float32"}, {"name": "StatefulPartitionedCall/audio_model/model/block_9_project/Conv2D_weights", "shape": [1, 1, 384, 64], "dtype": "float32"}, {"name": "StatefulPartitionedCall/audio_model/model/block_9_project/Conv2D_bn_offset", "shape": [64], "dtype": "float32"}, {"name": "StatefulPartitionedCall/audio_model/model/block_10_expand/Conv2D_weights", "shape": [1, 1, 64, 384], "dtype": "float32"}, {"name": "StatefulPartitionedCall/audio_model/model/block_16_expand/Conv2D_weights", "shape": [1, 1, 160, 960], "dtype": "float32"}, {"name": "StatefulPartitionedCall/audio_model/model/block_10_expand/Conv2D_bn_offset", "shape": [384], "dtype": "float32"}, {"name": "StatefulPartitionedCall/audio_model/model/block_10_depthwise/depthwise_weights", "shape": [3, 3, 384, 1], "dtype": "float32"}, {"name": "StatefulPartitionedCall/audio_model/model/block_10_depthwise/depthwise_bn_offset", "shape": [384], "dtype": "float32"}, {"name": "StatefulPartitionedCall/audio_model/model/block_10_project/Conv2D_weights", "shape": [1, 1, 384, 96], "dtype": "float32"}, {"name": "StatefulPartitionedCall/audio_model/model/block_16_expand/Conv2D_bn_offset", "shape": [960], "dtype": "float32"}, {"name": "StatefulPartitionedCall/audio_model/model/block_10_project/Conv2D_bn_offset", "shape": [96], "dtype": "float32"}, {"name": "StatefulPartitionedCall/audio_model/model/block_11_expand/Conv2D_weights", "shape": [1, 1, 96, 576], "dtype": "float32"}, {"name": "StatefulPartitionedCall/audio_model/model/block_11_expand/Conv2D_bn_offset", "shape": [576], "dtype": "float32"}, {"name": "StatefulPartitionedCall/audio_model/model/block_11_depthwise/depthwise_weights", "shape": [3, 3, 576, 1], "dtype": "float32"}, {"name": "StatefulPartitionedCall/audio_model/model/block_11_depthwise/depthwise_bn_offset", "shape": [576], "dtype": "float32"}, {"name": "StatefulPartitionedCall/audio_model/model/block_11_project/Conv2D_weights", "shape": [1, 1, 576, 96], "dtype": "float32"}, {"name": "StatefulPartitionedCall/audio_model/model/block_16_depthwise/depthwise_weights", "shape": [3, 3, 960, 1], "dtype": "float32"}, {"name": "StatefulPartitionedCall/audio_model/model/block_11_project/Conv2D_bn_offset", "shape": [96], "dtype": "float32"}, {"name": "StatefulPartitionedCall/audio_model/model/block_12_expand/Conv2D_weights", "shape": [1, 1, 96, 576], "dtype": "float32"}, {"name": "StatefulPartitionedCall/audio_model/model/block_12_expand/Conv2D_bn_offset", "shape": [576], "dtype": "float32"}, {"name": "StatefulPartitionedCall/audio_model/model/block_16_depthwise/depthwise_bn_offset", "shape": [960], "dtype": "float32"}, {"name": "StatefulPartitionedCall/audio_model/model/block_12_depthwise/depthwise_weights", "shape": [3, 3, 576, 1], "dtype": "float32"}, {"name": "StatefulPartitionedCall/audio_model/model/block_12_depthwise/depthwise_bn_offset", "shape": [576], "dtype": "float32"}, {"name": "StatefulPartitionedCall/audio_model/model/block_12_project/Conv2D_weights", "shape": [1, 1, 576, 96], "dtype": "float32"}, {"name": "StatefulPartitionedCall/audio_model/model/block_12_project/Conv2D_bn_offset", "shape": [96], "dtype": "float32"}, {"name": "StatefulPartitionedCall/audio_model/model/block_13_expand/Conv2D_weights", "shape": [1, 1, 96, 576], "dtype": "float32"}, {"name": "StatefulPartitionedCall/audio_model/model/block_13_expand/Conv2D_bn_offset", "shape": [576], "dtype": "float32"}, {"name": "StatefulPartitionedCall/audio_model/model/block_16_project/Conv2D_weights", "shape": [1, 1, 960, 320], "dtype": "float32"}, {"name": "StatefulPartitionedCall/audio_model/model/block_13_depthwise/depthwise_weights", "shape": [3, 3, 576, 1], "dtype": "float32"}, {"name": "StatefulPartitionedCall/audio_model/model/block_13_depthwise/depthwise_bn_offset", "shape": [576], "dtype": "float32"}, {"name": "StatefulPartitionedCall/audio_model/model/block_13_project/Conv2D_weights", "shape": [1, 1, 576, 160], "dtype": "float32"}, {"name": "StatefulPartitionedCall/audio_model/model/block_13_project/Conv2D_bn_offset", "shape": [160], "dtype": "float32"}, {"name": "StatefulPartitionedCall/audio_model/stft/frame/Reshape_3", "shape": [1, 551], "dtype": "int32"}, {"name": "StatefulPartitionedCall/audio_model/stft/frame/floordiv_2", "shape": [], "dtype": "int32"}, {"name": "StatefulPartitionedCall/audio_model/stft/frame_length", "shape": [], "dtype": "int32"}, {"name": "StatefulPartitionedCall/audio_model/stft/hann_window/sub_2", "shape": [551], "dtype": "float32"}, {"name": "StatefulPartitionedCall/audio_model/stft/frame/strided_slice/stack", "shape": [1], "dtype": "int32"}, {"name": "StatefulPartitionedCall/audio_model/stft/frame/strided_slice/stack_1", "shape": [1], "dtype": "int32"}, {"name": "StatefulPartitionedCall/audio_model/stft/rfft/packed", "shape": [1], "dtype": "int32"}, {"name": "StatefulPartitionedCall/audio_model/stft/frame/Reshape/shape", "shape": [0], "dtype": "int32"}, {"name": "StatefulPartitionedCall/audio_model/stft/frame/strided_slice/stack_2", "shape": [1], "dtype": "int32"}, {"name": "StatefulPartitionedCall/audio_model/truediv", "shape": [], "dtype": "float32"}, {"name": "StatefulPartitionedCall/audio_model/stft/rfft/sub/y", "shape": [], "dtype": "int32"}, {"name": "StatefulPartitionedCall/audio_model/ExpandDims/dim", "shape": [], "dtype": "int32"}, {"name": "StatefulPartitionedCall/audio_model/Tile/multiples", "shape": [3], "dtype": "int32"}, {"name": "StatefulPartitionedCall/audio_model/range_1/start", "shape": [], "dtype": "int32"}, {"name": "StatefulPartitionedCall/audio_model/model/Conv1_pad/Pad/paddings", "shape": [4, 2], "dtype": "int32"}, {"name": "StatefulPartitionedCall/audio_model/model/global_average_pooling2d/Mean/reduction_indices", "shape": [2], "dtype": "int32"}, {"name": "Func/StatefulPartitionedCall/input/_262", "shape": [1280, 22], "dtype": "float32"}, {"name": "Func/StatefulPartitionedCall/input/_263", "shape": [22], "dtype": "float32"}, {"name": "StatefulPartitionedCall/audio_model/linear_to_mel_weight_matrix", "shape": [513, 96], "dtype": "float32"}, {"name": "ConstantFolding/StatefulPartitionedCall/audio_model/stft/frame/concat/values_1_const_axis", "shape": [], "dtype": "int32"}, {"name": "ConstantFolding/StatefulPartitionedCall/audio_model/stft/rfft/zeros/packed_const_axis", "shape": [], "dtype": "int32"}]}]}